Files/simple_3_layer_net x50.onnx (onnx, 321925 bytes, 4 tensors)

W1 f4 [200, 200]
0.4792071 -0.8058956 -1.967409 1.9235868 0.21503195 0.8886091 0.2667676 0.2447253
0.085522294 -0.13873176 -0.6013702 -0.6116907 0.7212238 -0.89545745 1.1326865 2.030399
-0.89828885 1.2184094 -0.62659764 -0.07687661 0.0087558925 -0.6403475 -0.089838326 0.7508892
-1.3030747 0.24451365 0.30175406 0.055993274 0.09956444 -0.16874586 -0.9746374 1.0037367
-0.29657048 0.29060274 -1.2964872 -1.5298237 -0.5522491 0.0389609 -0.5906916 -0.117378995
-0.33587193 -0.7105502 0.8325909 -1.6823075 1.6609545 -0.46397337 0.5596562 -1.3802624
1.0549991 1.1618702 0.08763949 2.1987991 0.7542137 2.7559 -0.40570143 -0.37073022
-0.17998365 0.6485343 -0.57303673 -0.981259 0.083239876 1.6577846 -1.1202314 -1.0561252
-0.1014458 0.34704313 -0.87689245 -1.0684118 -0.73334163 -0.76434356 -0.28319696 -0.02135094
0.010020854 0.9725526 -0.5972 0.21647462 0.27716628 0.060596205 -0.3009199 -0.47372103
-0.6806478 -0.73858845 0.948913 0.6227154 0.29580474 0.81099087 -1.4987932 -0.82471377
1.6198131 1.8078883 -0.24799566 -0.8578711 -1.3143336 0.24743 3.3214731 -0.22572948
-0.37171665 -0.5285218 0.8473114 2.536624 -0.81667876 -0.2845333 -0.008010921 0.58409226
-0.84717387 0.78331935 -0.4853235 -1.3022974 -1.2577499 -1.3680167 1.5284809 1.330183
-1.4465805 -0.13110456 0.43942636 -0.84481233 0.7863391 -0.7455773 -1.6527504 -0.36203477
-2.4082127 -0.14589822 -0.22379129 1.7678562 0.5636524 0.41707984 -0.45599234 1.0636817
-0.53054917 -2.0414712 -0.12431595 0.97593796 2.3094606 0.6078717 -1.186709 0.073164836
-1.2378862 -1.1105165 -0.028718092 0.52091724 1.0669237 -0.17487507 1.0330306 -1.6045084
0.8947776 0.63520175 1.4313926 0.07474002 -1.3315626 -1.2990692 -0.41264972 -2.3680472
-1.0614083 0.03070136 0.99599266 -1.7475697 1.1532576 -1.5547888 -2.0446663 -0.37738177
-0.37936553 -1.2541034 1.0736641 0.23211566 -1.3518449 -1.4463983 0.11499712 -0.32727784
-0.21765447 -0.9743553 0.8333742 0.03621937 2.6646497 -0.44141737 0.110705376 -0.5698092
1.0106584 0.51334524 -1.2033155 -0.6041822 -0.7854923 -0.42091697 1.5533429 -0.45627967
-1.5366426 -0.41871077 -0.28610453 0.90564305 0.16908209 -1.5076116 -0.31250554 0.2980456
-0.28264567 0.26629317 0.34321383 1.359495 0.07474721 -0.44291195 0.6272602 0.40326163
-0.56223917 0.1930502 1.6347998 0.14940137 -0.9793566 -0.39074776 -0.040078804 0.9753217
-0.35992453 -1.3038054 -0.36053547 1.0776018 1.1772076 1.1982452 -1.1733941 -0.17798202
-0.35679346 -0.502472 0.9409351 0.20512457 0.6506311 -0.7764598 -0.4815256 -0.2555116
0.16926461 -0.08436936 -0.26586682 -0.84643286 -1.4805586 1.6961935 0.8714406 -2.0305371
-0.51269126 -0.59467006 1.1938177 0.47032198 -0.8613763 1.3955777 -1.3633401 -0.3961396
0.046390597 0.09140131 -0.7464531 -1.3375238 -1.6425534 -1.5712556 -2.568103 0.8084964
0.7589808 -0.9242242 -0.22201686 0.9650909 0.26306978 -0.16408947 0.77381134 1.1194082
00000000: a25a f53e 2d4f 4ebf 0fd4 fbbf 1838 f63f
00000010: 5631 5c3e e37b 633f c395 883e 4599 7a3e
00000020: 5026 af3d b30f 0ebe 66f3 19bf c397 1cbf
00000030: 1fa2 383f b33c 65bf dffb 903f 0ff2 0140
00000040: 42f6 65bf d7f4 9b3f b468 20bf 7c71 9dbd
00000050: e074 0f3c d0ed 23bf 28fd b7bd 463a 403f
00000060: 27cb a6bf c961 7a3e 827f 9a3e 3459 653d
00000070: 71e8 cb3d b7cb 2cbe d681 79bf 727a 803f
00000080: 16d8 97be e2c9 943e 4bf3 a5bf 43d1 c3bf
00000090: 3260 0dbf 7795 1f3d 9137 17bf 6664 f0bd
000000a0: 68f7 abbe 9ee6 35bf ad24 553f da55 d7bf
000000b0: 289a d43f eb8d edbe a145 0f3f 70ac b0bf
000000c0: 360a 873f 2ab8 943f 557c b33d 20b9 0c40
000000d0: 2614 413f aa60 3040 19b8 cfbe 5ad0 bdbe
000000e0: a24d 38be 5806 263f 89b2 12bf ca33 7bbf
000000f0: ab79 aa3d 4932 d43f be63 8fbf 1c2f 87bf
00000100: d1c2 cfbd a3af b13e 067c 60bf b8c1 88bf
00000110: 47bc 3bbf 05ac 43bf 31ff 90be 2be8 aebc
00000120: 822e 243c 35f9 783f 19e2 18bf 86ab 5d3e
00000130: bde8 8d3e ba33 783d 2c12 9abe 908b f2be
00000140: ef3e 2ebf 2214 3dbf f6eb 723f 476a 1f3f
00000150: b873 973e 199d 4f3f 75d8 bfbf 7120 53bf
00000160: 0956 cf3f e268 e73f 93f2 7dbe 719d 5bbf
00000170: 153c a8bf 4a5e 7d3e 0493 5440 a125 67be
00000180: a551 bebe 344d 07bf 66e9 583f 0c58 2240
00000190: dc11 51bf 59ae 91be 3d40 03bc 1287 153f
000001a0: 63e0 58bf 9e87 483f 527c f8be aeb1 a6bf
000001b0: f3fd a0bf 2c1b afbf 43a5 c33f 7043 aa3f
000001c0: 8d29 b9bf 4640 06be 7efc e03e 9f45 58bf
000001d0: 854d 493f 27de 3ebf 538d d3bf 9f5c b9be
000001e0: 2820 1ac0 5866 15be 8b29 65be 1d49 e23f
000001f0: 864b 103f 7d8b d53e d477 e9be b926 883f
00000200: 12d2 07bf 77a7 02c0 5c99 febd 12d7 793f
00000210: 34ce 1340 7b9d 1b3f 15e6 97bf 72d7 953d
00000220: 0e73 9ebf 6825 8ebf 3442 ebbc d55a 053f
00000230: f590 883f 7312 33be 593a 843f 8860 cdbf
00000240: 2510 653f 959c 223f df37 b73f 4c11 993d
00000250: a570 aabf e647 a6bf d346 d3be 168e 17c0
00000260: 3adc 87bf 6b81 fb3c 60f9 7e3f 5db0 dfbf
00000270: f29d 933f 5203 c7bf d0db 02c0 2f38 c1be
00000280: 333c c2be 7686 a0bf d36d 893f baaf 6d3e
00000290: 4109 adbf 9423 b9bf 9c83 eb3d f690 a7be
000002a0: d0e0 5ebe 596f 79bf 0358 553f c35a 143d
000002b0: 9f89 2a40 7501 e2be 80b9 e23d 04df 11bf
000002c0: 415d 813f 986a 033f 3e06 9abf afab 1abf
000002d0: 0616 49bf 6e82 d7be f1d3 c63f 7d9d e9be
000002e0: b4b0 c4bf 4261 d6be 4b7c 92be 39d8 673f
000002f0: db23 2d3e 6bf9 c0bf ba00 a0be 6f99 983e
00000300: efb6 90be 9457 883e b9b9 af3e ef03 ae3f
00000310: 1115 993d 5bc5 e2be 2094 203f 4f78 ce3e
00000320: e8ee 0fbf f4ae 453e 1f41 d13f acfc 183e
00000330: 1db7 7abf 1710 c8be ac29 24bd afae 793f
00000340: 0748 b8be 18e3 a6bf 1b98 b8be dbee 893f
00000350: bdae 963f 1960 993f c731 96bf eb40 36be
00000360: a2ad b6be 01a2 00bf 1fe1 703f 2d0c 523e
00000370: c38f 263f 12c6 46bf 868a f6be 6bd2 82be
00000380: b453 2d3e d8c9 acbd b21f 88be d3af 58bf
00000390: f282 bdbf de1c d93f bb16 5f3f 52f4 01c0
000003a0: bc3f 03bf 4c3c 18bf 05cf 983f 0bce f03e
000003b0: 2883 5cbf 4aa2 b23f ee81 aebf cfd2 cabe
000003c0: 1104 3e3d 9c30 bb3d 8d17 3fbf fb33 abbf
000003d0: 313f d2bf e71e c9bf cd5b 24c0 9ff9 4e3f
000003e0: 914c 423f f599 6cbf 6358 63be 3210 773f
000003f0: 15b1 863e 1207 28be 8018 463f c548 8f3f

B1 f4 [200]
-0.67459154 -1.7201538 -0.925232 -0.37543857 0.4004205 0.9605559 0.4321661 0.9196178
-0.5325334 -0.38555798 -2.3227215 -0.28432375 1.2517622 -0.9065484 1.9952961 -0.95563465
0.3318012 -0.16458294 -0.8524772 -0.85319877 -0.80306274 -1.0911293 0.47778797 0.81107175
2.0551372 0.54239887 -0.5352283 -0.94082224 0.980831 -0.4187473 0.08325438 0.33137313
-0.30156505 -0.16368099 0.7046898 0.7018857 0.41047272 0.8828995 -0.067478694 -0.051362492
-0.3775089 -0.060491327 -0.7614993 0.22450958 1.6328027 -0.13825583 -0.7689875 -0.67507255
0.4232647 0.98020184 2.2029142 2.2514315 -0.100467905 1.8253593 -0.9097605 0.95395267
0.6446704 -1.815728 -0.5998167 0.493158 0.33143115 -0.75245124 1.3310851 0.32935795
-0.3483021 1.788952 0.8510261 -0.09367185 0.823474 1.3537769 0.33660963 -1.045579
-0.49382317 0.2316159 -0.90066975 -0.07091635 0.15597534 -1.9450389 -0.06574785 0.16862682
-0.4553288 -0.3140279 0.8097223 -0.48043728 1.7526195 0.6031199 -0.51372665 -0.2158315
1.1166738 2.1805425 0.33179772 1.4701695 -0.8237234 -0.17615922 -1.0346265 1.2982992
-0.58915055 0.028760571 0.08737382 -1.0317798 -0.42214283 0.2945433 -0.6093028 0.2565181
-2.3535244 -0.6637298 -1.3413795 1.7576389 0.5926075 1.3089138 0.40355542 1.1380656
2.6435645 0.14509158 0.5316271 -3.748287 -0.2105963 -0.6495666 -1.0363069 -0.14665838
0.8709103 -0.63457185 -0.48268637 -0.22219439 -2.0727844 -0.57767135 -1.3488718 1.0698055
-0.25196788 -0.6494447 0.5303851 1.0000119 -1.2760049 0.12471533 0.832712 0.6510704
-0.4566853 -0.7750258 0.12897255 1.0038356 0.3163226 0.63816375 -0.37622994 0.4850033
0.5188624 1.6621969 -0.64794254 0.30476564 -0.83660895 0.6509606 1.884427 0.20877129
-0.6628829 -0.4644205 -1.1935034 -0.5263165 0.7457831 -0.27124396 -0.07654434 -0.51332414
-0.11595892 0.5015696 -1.9955466 0.32188964 1.5324892 -1.036292 0.72775847 -0.3395846
0.08184715 -0.39440748 1.0242609 0.06540457 -1.319309 -0.29785612 -0.021545269 -0.074242845
0.42485923 1.3595521 1.1163596 -0.46191868 -0.13841191 2.1939604 0.06559192 1.935586
0.4183181 -0.14001468 -0.10407008 0.49453652 1.4244896 1.8587353 -0.48022932 0.13887838
0.7969746 0.8578277 -0.3241849 0.73512363 -2.103138 -0.38805518 0.6159474 -1.4885848
00000000: 08b2 2cbf 002e dcbf 01dc 6cbf 7c39 c0be
00000010: ea03 cd3e fee6 753f e044 dd3e 126c 6b3f
00000020: 1c54 08bf db67 c5be 78a7 14c0 e292 91be
00000030: be39 a03f 8e13 68bf dd65 ff3f 79a4 74bf
00000040: d9e1 a93e 6e88 28be f23b 5abf 3c6b 5abf
00000050: 8595 4dbf 20aa 8bbf a0a0 f43e 66a2 4f3f
00000060: 5e87 0340 a7da 0a3f b904 09bf bad9 70bf
00000070: be17 7b3f 0c66 d6be 4681 aa3d bda9 a93e
00000080: bc66 9abe fd9b 27be 8d66 343f c8ae 333f
00000090: 7b29 d23e b405 623f 4532 8abd 7a61 52bd
000000a0: d948 c1be c1c5 77bd 9ef1 42bf d7e5 653e
000000b0: aeff d03f f092 0dbe 5ddc 44bf 8ed1 2cbf
000000c0: 27b6 d83e 82ee 7a3f 8cfc 0c40 7417 1040
000000d0: 1ec2 cdbd 60a5 e93f 10e6 68bf 3e36 743f
000000e0: 1f09 253f c669 e8bf 968d 19bf 357f fc3e
000000f0: 58b1 a93e a5a0 40bf ff60 aa3f 9ba1 a83e
00000100: a754 b2be 61fc e43f d9dc 593f 07d7 bfbd
00000110: 31cf 523f 9048 ad3f 1958 ac3e 88d5 85bf
00000120: 64d6 fcbe b82c 6d3e 4b92 66bf 973c 91bd
00000130: 00b8 1f3e 09f7 f8bf cfa6 86bd 82ac 2c3e
00000140: db20 e9be 44c8 a0be f649 4f3f e0fb f5be
00000150: d655 e03f 1166 1a3f 9783 03bf ef02 5dbe
00000160: 2bef 8e3f 028e 0b40 64e1 a93e 842e bc3f
00000170: 89df 52bf 1563 34be a46e 84bf ab2e a63f
00000180: 92d2 16bf 4a9b eb3c 0cf1 b23d 5c11 84bf
00000190: 1b23 d8be 61ce 963e 45fb 1bbf 5756 833e
000001a0: 25a0 16c0 32ea 29bf 53b2 abbf 50fa e03f
000001b0: 20b5 173f 7d8a a73f d19e ce3e 22ac 913f
000001c0: 2930 2940 e392 143e b718 083f efe3 6fc0
000001d0: 8ea6 57be ff49 26bf b4a5 84bf 9d2d 16be
000001e0: faf3 5e3f 4d73 22bf ab22 f7be ed86 63be
000001f0: 80a8 04c0 45e2 13bf d5a7 acbf 63ef 883f
00000200: ef01 81be 0242 26bf 51c7 073f 6400 803f
00000210: 2154 a3bf c06a ff3d 9d2c 553f 8dac 263f
00000220: a8d2 e9be 1768 46bf 6111 043e af7d 803f
00000230: 09f5 a13e b35e 233f 36a1 c0be 5a52 f83e
00000240: 2bd4 043f dec2 d43f 90df 25bf 3e0a 9c3e
00000250: 012c 56bf 5ba5 263f e734 f13f 24c8 553e
00000260: b2b2 29bf 86c8 edbe b8c4 98bf aebc 06bf
00000270: a4eb 3e3f 7de0 8abe 47c3 9cbd 3669 03bf
00000280: df7b edbd de66 003f 126e ffbf b8ce a43e
00000290: 9b28 c43f 37a5 84bf 614e 3a3f 08de adbe
000002a0: 7b9f a73d c7ef c9be fb1a 833f d5f2 853d
000002b0: 1edf a8bf 9980 98be b47f b0bc a20c 98bd
000002c0: 2687 d93e ce05 ae3f dfe4 8e3f 9b80 ecbe
000002d0: dabb 0dbe d969 0c40 0e55 863d 48c1 f73f
000002e0: ca2d d63e 0260 0fbe b222 d5bd e433 fd3e
000002f0: ad55 b63f 0aeb ed3f 9ee0 f5be 2236 0e3e
00000300: 8706 4c3f 999a 5b3f 90fb a5be 1031 3c3f
00000310: d099 06c0 2baf c6be bbae 1d3f f289 bebf

W2 f4 [200, 200]
1.2532738 0.15642992 0.077840194 -0.08239927 0.60596377 1.1979074 0.94371027 1.2426255
-1.0421987 -0.090754986 -1.6332006 -0.8130176 1.1895548 1.5432802 0.45121527 -0.19560452
1.1840694 0.2694614 0.851333 -0.3847748 0.31935275 -0.44865048 -0.66087234 0.0930681
-0.51744455 -1.3277123 0.5971555 -0.78449905 0.67653084 1.0587999 -0.37070033 -1.0330149
0.8545854 -0.48508623 -0.4341519 -0.95766985 0.030906191 -0.42218024 -1.2213886 -0.58434725
-0.9903062 -1.0794089 0.71325094 -0.2688517 -1.0027915 0.5715605 -1.1464405 0.20532085
1.0685105 -0.9578995 1.1784321 -0.46847564 1.1925528 -1.7020197 1.8379136 -1.9122139
0.19331524 -1.8438873 -1.1789093 0.118391 2.0475025 0.046555247 -0.4022903 -0.46896788
1.1580065 1.5296521 -0.4587022 0.40204313 -0.411371 -0.8063941 -0.56580424 -2.1204696
0.24257545 0.17161784 -0.0878404 1.5366378 0.14271967 0.96268547 0.056739923 1.2762226
1.2790657 0.31217268 0.43950507 0.5472343 0.8518527 0.18924662 0.33538452 -0.51959056
-0.12759481 -1.2866939 -0.8756174 1.2137301 1.417893 1.3307686 -0.031603664 -0.3020256
-1.232908 -0.46189326 -0.65357447 1.1043787 0.49107122 -0.7845443 0.4451816 -1.6534578
0.090774804 0.13955767 -1.1836392 0.4423059 0.96810585 -1.7095774 0.8529673 0.52058387
-3.1630905 1.7592193 -1.1687269 -0.9547989 0.17851327 -0.47633126 -0.32649687 -1.8681668
-0.48396906 1.5276206 0.2746648 1.2082497 -0.89035726 0.14496657 0.25994742 1.5909857
0.18324235 -2.023702 0.5355767 -1.4040365 -1.4288199 -0.78693265 -1.362258 -0.5077835
0.6362014 0.65740544 -0.6972813 0.34090793 1.4178447 0.18055807 -0.69638556 1.1172194
-0.82833886 0.061910737 -0.10511439 -1.1073866 -2.4829855 -0.9526974 -0.5079412 0.42192593
-1.5182583 0.237888 0.040921975 1.0132908 -1.081379 0.51329505 -0.90367836 -0.96937263
0.870287 0.35164168 0.7599147 -0.13538614 1.5771532 -0.97425824 -0.5910038 0.18272224
-0.19434954 0.63792014 -1.0513091 0.6216153 -1.3247985 -0.33456305 -1.5959929 0.37153426
-2.018802 -0.045627754 0.568347 0.18227063 -0.6593501 0.43785554 -1.1203153 0.7042423
1.5237451 -0.19258426 1.9150348 1.055328 -1.0906467 -0.12838523 -0.3395689 -0.495943
0.573665 0.8758672 -0.5404367 0.93392265 -2.631704 -1.621306 0.052355446 0.5863943
-0.51695395 1.1744622 -0.786263 -1.5644327 -1.2546566 -1.7294878 1.9337933 -0.5469072
0.3923348 0.60056823 -0.86966234 2.4242907 -1.0565903 0.74647635 -1.9078066 0.8165476
-0.2702198 -0.11255186 -0.36569127 -0.042246975 -0.7124847 0.77718055 0.7255277 0.788278
0.08743524 0.283847 -1.407725 -2.2772923 0.3835482 1.5656643 -1.6806391 1.4089525
0.5960321 1.565801 1.0800194 0.46439198 -0.64972603 -0.13147533 0.5326654 -0.9133949
1.3430635 -1.854025 0.30877084 -0.30423164 -0.6349971 -1.5201733 0.40714794 -0.3218004
0.41708836 -0.5336242 0.15377706 0.7092068 0.047052536 -1.4917196 -2.714057 0.074227035
00000000: 476b a03f 2a2f 203e ae6a 9f3d f3c0 a8bd
00000010: 7120 1b3f 0855 993f ff96 713f 5a0e 9f3f
00000020: c466 85bf c0dd b9bd b80c d1bf ec21 50bf
00000030: 5543 983f 358a c53f b005 e73e 8d4c 48be
00000040: 968f 973f d8f6 893e f6f0 593f 3401 c5be
00000050: 3482 a33e 84b5 e5be ee2e 29bf 7d9a be3d
00000060: 3f77 04bf 7af2 a9bf 2fdf 183f eed4 48bf
00000070: 2031 2d3f c186 873f 6fcc bdbe d539 84bf
00000080: 1cc6 5a3f 395d f8be 2849 debe da29 75bf
00000090: fb2e fd3c 0228 d8be 7656 9cbf c897 15bf
000000a0: b584 7dbf 122a 8abf 9d97 363f eea6 89be
000000b0: 795b 80bf ca51 123f 90be 92bf a13f 523e
000000c0: f4c4 883f e738 75bf ddd6 963f 0adc efbe
000000d0: 92a5 983f c8db d9bf c140 eb3f 6dc3 f4bf
000000e0: 6ef4 453e 8004 ecbf 80e6 96bf fb76 f23d
000000f0: 480a 0340 b7b0 3e3d fff8 cdbe 8f1c f0be
00000100: 8f39 943f a4cb c33f 04db eabe 99d8 cd3e
00000110: 389f d2be d86f 4ebf 8cd8 10bf c6b5 07c0
00000120: b365 783e 96bc 2f3e abe5 b3bd 8cb0 c43f
00000130: 1b25 123e 8e72 763f 1f68 683d 435b a33f
00000140: 6db8 a33f 19d5 9f3e cf06 e13e 8c17 0c3f
00000150: 0513 5a3f dec9 413e 85b7 ab3e e303 05bf
00000160: 37a8 02be 63b2 a4bf 7628 60bf 825b 9b3f
00000170: 857d b53f a056 aa3f d872 01bd 19a3 9abe
00000180: eecf 9dbf 467d ecbe a850 27bf 485c 8d3f
00000190: b06d fb3e e5d7 48bf d8ee e33e 81a4 d3bf
000001a0: 24e8 b93d 35e8 0e3e 7d81 97bf eb75 e23e
000001b0: c9d5 773f 6fd3 dabf 115c 5a3f fc44 053f
000001c0: 1370 4ac0 192e e13f d898 95bf b36d 74bf
000001d0: 2fcc 363e b1e1 f3be 992a a7be 1720 efbf
000001e0: cbca f7be 1289 c33f dda0 8c3e eda7 9a3f
000001f0: 74ee 63bf 1e72 143e d417 853e 6ba5 cb3f
00000200: e2a3 3b3e 5584 01c0 8e1b 093f 78b7 b3bf
00000210: 92e3 b6bf 6b74 49bf 785e aebf 19fe 01bf
00000220: 18de 223f b94b 283f 0781 32bf 7c8b ae3e
00000230: ef7b b53f 37e4 383e 5346 32bf 0c01 8f3f
00000240: 040e 54bf 1d96 7d3d 3746 d7bd d8be 8dbf
00000250: 3ce9 1ec0 fae3 73bf 6f08 02bf ad06 d83e
00000260: 4a56 c2bf e998 733e cd9d 273d 83b3 813f
00000270: a16a 8abf 4e67 033f 7757 67bf ce28 78bf
00000280: 21cb 5e3f 610a b43e c589 423f aaa2 0abe
00000290: 28e0 c93f fd68 79bf 064c 17bf 8a1b 3b3e
000002a0: 9103 47be bc4e 233f 4c91 86bf 2e22 1f3f
000002b0: ff92 a9bf d94b abbe 7f49 ccbf bd39 be3e
000002c0: 0d34 01c0 2be4 3abd 307f 113f 27a5 3a3e
000002d0: 2bcb 28bf 9a2e e03e 7e66 8fbf 3949 343f
000002e0: 140a c33f cf34 45be dc1f f53f fd14 873f
000002f0: 509a 8bbf 6b77 03be fadb adbe 3eec fdbe
00000300: b6db 123f d538 603f 0f5a 0abf 8e15 6f3f
00000310: d76d 28c0 f486 cfbf aa72 563d f01d 163f
00000320: 1857 04bf c754 963f 8848 49bf 553f c8bf
00000330: 9698 a0bf db5f ddbf 8a86 f73f 1c02 0cbf
00000340: 1be0 c83e d7be 193f 31a2 5ebf 9427 1b40
00000350: 5a3e 87bf 1319 3f3f 0233 f4bf 4309 513f
00000360: 405a 8abe 9781 e6bd e33b bbbe 2a0b 2dbd
00000370: 6665 36bf 4ef5 463f 2fbc 393f 96cc 493f
00000380: 3f11 b33d 6554 913e 5530 b4bf 28bf 11c0
00000390: 6e60 c43e b067 c83f 2f1f d7bf 8e58 b43f
000003a0: 8f95 183f 2b6c c83f 133e 8a3f c9c4 ed3e
000003b0: 7254 26bf 78a1 06be c25c 083f 40d4 69bf
000003c0: 81e9 ab3f b150 edbf 3617 9e3e 40c4 9bbe
000003d0: 2c8f 22bf 0a95 c2bf b275 d03e 06c3 a4be
000003e0: 9b8c d53e 989b 08bf bc77 1d3e 948e 353f
000003f0: 29ba 403d abf0 bebf 1cb3 2dc0 5804 983d

B2 f4 [200]
-0.25823325 0.8442877 -0.23464353 -0.08836194 1.0306996 -1.8949876 -0.122398466 0.055307467
-0.74813956 0.0037128094 0.7076023 -0.68518996 0.05680358 -0.9146638 1.5098289 1.1545932
-0.0751571 -0.19632308 0.08842603 -1.6994278 1.6788875 0.7500882 1.1798488 -1.1402781
0.83042794 0.40270126 0.31952134 -0.5210983 -1.5080866 -1.225428 0.0686408 -0.4758068
0.4323205 1.2412909 1.7948493 1.4455801 -0.80650556 0.94937944 -0.44545627 -0.19842519
2.9869492 0.40312913 1.1506763 -0.21542023 -0.78286356 0.0878712 -1.2354742 0.4848478
1.1661968 -0.28948632 -2.2805564 -1.2647862 -1.3941995 0.84330845 -0.3380816 1.5754327
1.3097402 -0.46675494 0.87478864 -0.94994724 -0.25678387 0.8222256 -0.55010563 -1.2160567
-0.7985737 -0.29330876 -1.1687193 0.43486506 0.5280956 0.87664896 1.2106863 0.8137685
0.06964313 0.52773255 0.46314994 -0.4644553 0.37429345 2.3302288 -0.96336615 0.38038087
-0.20224361 0.6990155 0.8858387 0.7359686 1.5031564 2.2989383 1.5289159 -1.5891123
1.5488843 1.9930482 0.94798446 -0.32516134 0.6261258 1.1519079 1.4796587 0.253481
0.81985116 1.1720042 1.9196144 0.032385476 -0.43930143 1.7693473 0.19854857 -1.1981438
0.8902603 0.65416616 -0.9314766 -1.025116 0.24401094 1.4076762 -1.1898547 0.4040997
2.602655 0.81572974 -1.046292 0.6203472 -0.9144853 0.33545566 -0.14111434 -0.016148008
0.6594982 0.5021522 -0.17429754 0.24536824 1.1155823 0.2996272 1.530048 -1.4332404
1.9628035 1.6279902 1.25374 -1.2887101 1.1618557 -1.7432694 -1.2743291 0.63203007
0.4242627 0.49264145 0.6090203 0.7033664 1.9063636 -0.18042488 -0.17541862 0.24163705
-1.7227286 1.197422 -0.5304219 -0.79692227 -0.61177164 0.47447625 0.265656 -0.44567096
-0.3993882 0.2610095 0.73859 -0.70268786 -0.63834554 0.6439657 -1.3534371 -1.1124129
0.025621407 0.11833576 0.42649403 0.59995127 -0.9706432 0.36565143 0.5857121 0.2352537
-0.85000306 0.14870915 -0.5030214 1.1759957 0.29971883 -0.29487088 0.95070684 -0.47807303
-0.010860807 -0.11046384 0.60864836 1.0089989 0.56691724 0.6570785 -0.47394446 0.064545676
-1.7790312 1.175783 1.9959959 0.064849235 -0.13103431 1.413693 0.17181715 -0.7856655
0.82925457 -2.8601801 -1.0122066 -0.87083626 0.9295075 0.58161026 0.6727774 0.6572063
00000000: 2637 84be 3d23 583f 6546 70be 1bf7 b4bd
00000010: f7ed 833f f48e f2bf 0cac fabd 158a 623d
00000020: 1386 3fbf 9b52 733b 6d25 353f 9c68 2fbf
00000030: dfaa 683d 6827 6abf 1342 c13f b6c9 933f
00000040: f7eb 99bd eb08 49be b518 b53d da86 d9bf
00000050: c9e5 d63f c805 403f 4905 973f a2f4 91bf
00000060: ed96 543f dc2e ce3e 4d98 a33e b366 05bf
00000070: fb08 c1bf d3da 9cbf 8c93 8c3d f39c f3be
00000080: 1d59 dd3e 9fe2 9e3f 9fbd e53f c508 b93f
00000090: 2677 4ebf 880a 733f d812 e4be f92f 4bbe
000000a0: 2d2a 3f40 f166 ce3e 5c49 933f 1f97 5cbe
000000b0: bf69 48bf d1f5 b33d 0524 9ebf f93d f83e
000000c0: f045 953f 8d37 94be a3f4 11c0 84e4 a1bf
000000d0: 2175 b2bf 10e3 573f 0819 adbe c7a7 c93f
000000e0: 91a5 a73f 81fa eebe 26f2 5f3f be2f 73bf
000000f0: 2d79 83be 607d 523f b9d3 0cbf bfa7 9bbf
00000100: 536f 4cbf 912c 96be 9898 95bf a2a6 de3e
00000110: 4631 073f 116c 603f c5f7 9a3f 2253 503f
00000120: 0fa1 8e3d 7b19 073f fd21 ed3e 16cd edbe
00000130: 64a3 bf3e 7822 1540 2a9f 76bf 48c1 c23e
00000140: f318 4fbe aef2 323f 53c6 623f 7068 3c3f
00000150: 6e67 c03f ce21 1340 84b3 c33f 0868 cbbf
00000160: d741 c63f 341c ff3f 1caf 723f 8c7b a6be
00000170: c849 203f b871 933f 7565 bd3f 43c8 813e
00000180: c4e1 513f 3c04 963f edb5 f53f a2a6 043d
00000190: 1eec e0be f979 e23f 5150 4b3e c75c 99bf
000001a0: 19e8 633f 6f77 273f 4075 6ebf 0037 83bf
000001b0: 01de 793e bc2e b43f 294d 98bf 28e6 ce3e
000001c0: e691 2640 aad3 503f e5ec 85bf 13cf 1e3f
000001d0: b51b 6abf d8c0 ab3e 4780 10be d448 84bc
000001e0: e0d4 283f 0c8d 003f 0e7b 32be d041 7b3e
000001f0: 67cb 8e3f bd68 993e 9dd8 c33f 6c74 b7bf
00000200: 253d fb3f fc61 d03f 8d7a a03f 74f4 a4bf
00000210: b0b7 943f 7423 dfbf 371d a3bf b9cc 213f
00000220: f638 d93e 803b fc3e c1e8 1b3f d20f 343f
00000230: b903 f43f 4dc1 38be f0a0 33be b46f 773e
00000240: 5f82 dcbf 2045 993f bbc9 07bf 1903 4cbf
00000250: 119d 1cbf 8dee f23e 1004 883e fc2e e4be
00000260: 9c7c ccbe 0aa3 853e 3c14 3d3f 5ae3 33bf
00000270: 9d6a 23bf f0da 243f 6d3d adbf 8c63 8ebf
00000280: fce3 d13c 055a f23d 6d5d da3e 6896 193f
00000290: 137c 78bf aa36 bb3e 3af1 153f 59e6 703e
000002a0: cd99 59bf 3647 183e 03c6 00bf 0787 963f
000002b0: bf74 993e 51f9 96be 8661 733f fdc5 f4be
000002c0: 87f1 31bc de3a e2bd 61d0 1b3f e026 813f
000002d0: 7d21 113f 4c36 283f d9a8 f2be 8630 843d
000002e0: 4bb7 e3bf 0f80 963f cb7c ff3f adcf 843d
000002f0: dc2d 06be e4f3 b43f d6f0 2f3e 6021 49bf
00000300: 074a 543f 310d 37c0 fc8f 81bf 20ef 5ebf
00000310: 34f4 6d3f 69e4 143f 243b 2c3f ac3e 283f
