Files/simple_3_layer_net x10.onnx (onnx, 19911 bytes, 4 tensors)

W1 f4 [40, 80]
00000000: 5c40 06c0 5987 5bbd 23a7 c3be 8ef5 9cbf
00000010: 4838 5f3e a4af 05c0 9860 22bf 1a13 61bf
00000020: 139e 403f 3c88 34bd e219 d3bf 94db 20bf
00000030: 2d49 9dbf ba49 13bf f56e d73e 0a8d 723f
00000040: d4aa a1bf 93cf f7bf 86e6 c63e bb4f 0e3f
00000050: 1c68 02be e0b6 f0bf 0ee0 00bd 37ae cd3c
00000060: 9bb9 c5bf fddb d0be 60a8 0bbf b903 793f
00000070: 48da 063f 4c5c f73f 6af7 f73e c74b 0b40
00000080: 11b3 7abf c42f 15bf 6005 74bf 077f b93f
00000090: 0e5f 3c3f fc55 53bf 0884 9c3f f686 d13e
000000a0: c32a 503f 343d 863d 0033 71bf ad97 35be
000000b0: 0b28 42bf 82b5 8ebf 885e 90bf a881 debf
000000c0: 08d9 2ebf 44f2 8cbd 711c e0bf bb0b bf3f
000000d0: 3a79 ac3e 296b 80bf 7938 cb3e 5b07 64bd
000000e0: 6d17 673e 9ec7 a73e e6eb 3b3e 2d0d b53f
000000f0: b6d6 0ebe 375a 13bf c87d 11be 3ac7 c5bf
00000100: 3ce7 80be 280d 863f 1208 d73f 5d1f 553f
00000110: 7e38 393f 5611 41bf 2ce4 05c0 6db4 673f
00000120: ab7f 9fbf 8732 63bf bfe2 5ebf f56d 5f3d
00000130: 3ddb 81be fa21 09c0 4f1f c03e 5722 d4be
00000140: abc3 793f 673c b63f 3ac3 533f fea3 cd3f
00000150: 7faa df3f 9174 da3f eca9 91bf 64cd 2840
00000160: 2ff1 c2be 4f2c cfbe 1a71 463e a993 1540
00000170: bed7 62bf 97b5 fcbe 9aed 10bf a872 d7bf
00000180: b31b 323f dafc e2bf 8382 123f 521a 95bf
00000190: fe2f 2c3f 0001 8d3f 43a0 55bf 50d4 61bf
000001a0: 16bd 1740 3153 333f 1e02 b1bf e9cd 0c3f
000001b0: 054d 2cbf 9d09 98bf 967e 71bf 1732 553f
000001c0: 2059 80bf 2c11 67be e35f 713f ffdc a43e
000001d0: fbd1 c8bf 02f0 be3f aae0 b53f 9447 5c3f
000001e0: 6b55 ab3e 09a9 14bf a3e3 52be 18e5 f2be
000001f0: 6430 113f 7a9a 443f 096e c43f 27ca 623f
00000200: a9d9 1cc0 ff72 6e3f 24c0 3bbf 275e 26be
00000210: 7b1d 453e 5a8c 44bf d835 d9be a488 8ebf
00000220: bc60 0dbf 2321 6dbe 0bed a1bf 663b b6be
00000230: 828b e8be e912 d4be 2e8e 673f 1df1 b7be
00000240: 859d a63e 39a6 1dbf 055d 593f 6891 98be
00000250: 9792 453f 8058 783f 7c70 4f3f f31a 90bf
00000260: 1b94 0f3f 305d 89bf 4961 01be e741 39be
00000270: bdc6 8dbd cd1f c53f c1ed 123f 5577 6c3f
00000280: 1778 1b3f 903d 1c3f cf56 183e f3ad acbe
00000290: ad2c 6cbd e777 3cbf 06ee 7abe 0293 843e
000002a0: a419 093e fcc3 863e 8ff7 943e aa48 c83e
000002b0: e2b9 0bbe 0875 1f3f 0ab2 d2bf da7d 573f
000002c0: 8455 7d3f caae d2bc 3b9f 82be 87ce 513e
000002d0: aeaa adbe 74c5 173e 1ee1 a2bf 0119 763e
000002e0: 1f0e 163f 6fd5 0ec0 0b9e a93f 47f6 fb3d
000002f0: 4ca6 cebe e569 493f 8375 a8be 37af 0ebf
00000300: 6290 0abe 667b bf3f 1abd 943f 93c9 0ebf
00000310: b500 a03f 229f 313f dd85 dabf 04a2 e93f
00000320: 662f 52bf 0e21 d8bf d984 f4be 88e6 253e
00000330: 7c79 5ebf 5d31 87be d23a 34bf cfd4 97bf
00000340: e690 54bf 31a4 9dbf 01c2 db3e 4b09 55bf
00000350: a1d5 4dbf 380e 8e3d 7303 16c0 2a17 9ebe
00000360: 2daf 273e 9095 d23f aa8d 953f 31c2 9fbf
00000370: e13f 19bf fb1c fc3d 864c 843f 1ffd 1a3f
00000380: 30c2 333f 4b85 60bc a8ed 573f 697e 593f
00000390: 78d0 8d3e a86c c23e f3df 44c0 3cfc bc3f
000003a0: b6cb 1240 e078 13bd 82be b33e 2bce 31bf
000003b0: 05f2 9bbe f072 5abd dfb7 cbbf 15ae c53f
000003c0: d61c 0ec0 27d2 61bf 2b3c 423f d993 9dbe
000003d0: a386 f93e 8b01 58bf 02de 8b3f 2adb 143f
000003e0: f20b 29bf 4bad b83f 561b 88bf 0fd3 8fbf
000003f0: cc30 3e3f e9d6 0040 95a9 463b 6231 16bf
-2.0976782 -0.053595874 -0.38213453 -1.2262437 0.21798813 -2.0888453 -0.6342864 -0.8791977
0.752412 -0.044075236 -1.6492274 -0.6283505 -1.2287956 -0.5753437 0.4207684 0.9474646
-1.2630258 -1.9360222 0.3884775 0.5559041 -0.12735027 -1.8805809 -0.031463675 0.025107486
-1.5447267 -0.40792838 -0.54553795 0.97271305 0.5267682 1.9325042 0.4843095 2.1765
-0.97929484 -0.5827601 -0.953207 1.4491891 0.7358254 -0.82553077 1.2227793 0.4092328
0.8131525 0.06554642 -0.94218445 -0.17733641 -0.7584235 -1.1149142 -1.1278849 -1.7383318
-0.68299913 -0.06882146 -1.750868 1.4925455 0.3368624 -1.0032703 0.39691523 -0.055671077
0.2256753 0.32769483 0.18351707 1.4144646 -0.13949093 -0.5755953 -0.14208138 -1.5451424
-0.25176418 1.0472765 1.6799338 0.8325098 0.72351825 -0.7541708 -2.0920515 0.9050968
-1.2460836 -0.88748974 -0.8706474 0.054548223 -0.25362578 -2.1426988 0.37523887 -0.4143245
0.9756419 1.4237183 0.8271977 1.6065671 1.7473906 1.7066823 -1.1379981 2.637536
-0.38074633 -0.40463492 0.19379082 2.3371375 -0.88610446 -0.49357292 -0.5661255 -1.6831865
0.69573516 -1.7733414 0.57230395 -1.1648657 0.6726073 1.101593 -0.83447665 -0.8821459
2.370916 0.70048815 -1.3828771 0.55001694 -0.6730502 -1.1877934 -0.9433378 0.83279556
-1.0027199 -0.22565144 0.94286937 0.32199857 -1.5689081 1.4916995 1.4209187 0.8604672
0.33463606 -0.5807043 -0.20594649 -0.4744041 0.56714463 0.7679821 1.534608 0.8858971
-2.450785 0.9314422 -0.7334006 -0.16246854 0.19249527 -0.7677666 -0.42423892 -1.113545
-0.5522573 -0.23157172 -1.2650465 -0.35592192 -0.45418936 -0.41420677 0.90451324 -0.35926142
0.32542053 -0.6158176 0.8490756 -0.29798436 0.77176803 0.9701004 0.8103101 -1.1258224
0.56085366 -1.0731564 -0.12634768 -0.18091546 -0.06922672 1.540033 0.57394034 0.92369586
0.6073012 0.61031437 0.14876865 -0.33726463 -0.057659794 -0.73620456 -0.24504861 0.25893408
0.13388687 0.263214 0.29095122 0.39117938 -0.13645127 0.6228795 -1.6460583 0.8417641
0.9895861 -0.025718112 -0.25512108 0.2048894 -0.3391928 0.14821416 -1.272495 0.24032976
0.586153 -2.231777 1.3251356 0.12302833 -0.4036125 0.7867721 -0.32902154 -0.55736107
-0.1353164 1.4959533 1.1620209 -0.5577633 1.2500216 0.6938344 -1.7072102 1.8252568
-0.82103574 -1.6885087 -0.47757605 0.16201222 -0.8690412 -0.2640485 -0.7040225 -1.1861819
-0.830336 -1.2315732 0.4292145 -0.83217305 -0.80404097 0.06936306 -2.3439605 -0.30877048
0.16375418 1.6451893 1.1683857 -1.2481138 -0.59863096 0.12310215 1.0335853 0.6054248
0.7021818 -0.0137036545 0.8434701 0.8495851 0.27698112 0.37973523 -3.0761688 1.4764476
2.2936835 -0.036003947 0.35106283 -0.6945521 -0.30458084 -0.05333227 -1.5915488 1.5443751
-2.22051 -0.8821129 0.7587306 -0.3077686 0.48735532 -0.84377354 1.0927126 0.5814692
-0.6603385 1.4427885 -1.0633342 -1.1236285 0.7429321 2.013117 0.003031348 -0.586691

B1 f4 [80]
00000000: 9ace debe c143 b13e 1713 48be 2c0e 12bf
00000010: 4cc4 8f3f 4502 b3be 7bb2 dbbe 6956 a53f
00000020: a7a4 5f3f 7926 5e3e 5659 e83e c299 613f
00000030: c30c a33e 0ba7 343f 3cfb 2c3f 1774 ab3d
00000040: f0b1 07c0 c775 5e3e ee7a ab3d cd5b 5b3e
00000050: a937 19c0 04db 513f 8e52 913f c2a8 f33f
00000060: a00b 103f bf72 ed3e 57c5 df3f 814d 0abf
00000070: 39e5 22c0 3c2b a63e b3ab 3b3f 8e01 b13f
00000080: 8d5e df3f 9b16 53bf 5a35 943f 5e56 4cbf
00000090: 98b3 ba3f 1b56 65bf 6da8 2f40 3252 233f
000000a0: e97a e83f 212c d53f e121 513f e928 7abf
000000b0: e799 853f 3469 213f ba61 1040 d208 ff3d
000000c0: 9123 493f fbff fabe b5fb 653e 3972 91bf
000000d0: 6814 87be e14e 983f 0ecc 47bf 7728 89bf
000000e0: 1f16 eb3f 98ca a4bf 0538 29bf 83f7 223f
000000f0: 9096 963f c83c 86be 5550 dd3e 1c30 9fbf
00000100: 61e7 643e 9d2b c9bd c6c2 c43f 3ae3 abbe
00000110: df67 0abf 9a2b cbbe e527 10bf 523a 21bf
00000120: f525 803f 6c93 2fbd b27a e83f ea73 c33e
00000130: 2874 1940 2f22 bfbf 9d5d 1c3e ed85 b6bf
-0.43517 0.34622005 -0.19538532 -0.57052875 1.123178 -0.3496267 -0.42909607 1.2916995
0.87360615 0.21694364 0.45380658 0.8812524 0.31845674 0.7056739 0.67570853 0.08371752
-2.1202354 0.21724616 0.08373056 0.21421738 -2.3940222 0.81974816 1.1353319 1.9035876
0.5626774 0.46376607 1.7482098 -0.5402451 -2.5452406 0.3245486 0.7330887 1.38286
1.745073 -0.8245637 1.1578782 -0.79819286 1.4586058 -0.8958451 2.744655 0.63797295
1.8162509 1.6654092 0.8169232 -0.97718674 1.0437592 0.6305115 2.2559648 0.12452854
0.78569895 -0.49023423 0.224593 -1.1362983 -0.26382756 1.1899072 -0.7804574 -1.0715474
1.8366126 -1.2874327 -0.66101104 0.6365892 1.1764698 -0.26218247 0.4322535 -1.2436557
0.22353889 -0.09822772 1.537194 -0.33571798 -0.54064745 -0.39681703 -0.56310874 -0.62979615
1.0011584 -0.0428652 1.8162444 0.38174373 2.3977146 -1.4932307 0.15270086 -1.4259621

W2 f4 [80, 20]
00000000: aea1 c7be 2983 db3e e442 12bf 2b4c d93f
00000010: b450 9f3f 9dc7 dfbe 7cd6 ac3f 9744 153e
00000020: cf3d 2cbf ecb2 a23f 38d5 4bbf 3489 b63f
00000030: 0e66 2ebf 7fc5 c23e 75a4 9c3f df3b cb3f
00000040: a7fb 973f fef0 b4be c56b 103f b6fc b33f
00000050: b598 8bbf 2944 5ebf cff9 ca3f 2d90 2bc0
00000060: 4eeb 04be cf7f ba3f 28a0 a8be 7f76 66be
00000070: fe6f 07bf 6e39 fc3e eb26 873f 1ead 073e
00000080: e307 3cbe 4663 25c0 ed11 fdbe e383 47be
00000090: 88f3 06bf 2577 c7bc 8c33 db3e a299 36be
000000a0: 5aae 7bbf 348f 50bf 453d 05bf efcd 25bf
000000b0: 30bb 063e 7153 ddbe 1a36 cabf a13a 923f
000000c0: c8cb 80bf 4232 80bd 0723 4b3f 839c ca3e
000000d0: b13b 2dbf b1c6 3e3f 4a7d 76bf 58f4 313f
000000e0: 5187 d93f 96c4 8fbf 3df5 8abf 888b 12bf
000000f0: 040e 123f 0985 c83f b17c df3f f083 c0bc
00000100: a80b 353f 8a17 c13e 5f02 0bc0 472a b9be
00000110: 9d00 623f 87ac a9bf 6568 fbbf 801f 943e
00000120: 5a2b c13e c7bc ae3f a92e 54bf 1af2 efbf
00000130: e6d2 1bbe 294d 24bf 99a6 8a3f f72d 84be
00000140: 140b f53e 895b 463f 02d8 64bf ffc5 323f
00000150: 9744 533e 1756 0b3f 34bc 0740 2ee3 063e
00000160: 66c7 2a3d 9ca9 823f 793a b93e 283e 24bf
00000170: a33c 4cbf ce38 d03f f2ba c4bf 7de4 6e3f
00000180: e8f7 cb3e e2e4 193f 65d5 8cbf 5c6c 1abf
00000190: 5a76 38bf 90e2 edbe 7e35 fb3d 3514 5abf
000001a0: 6aca f83e 58a5 d5bd e005 0e40 83da e03e
000001b0: 865c 36be 8dea b0bf 43b9 913f 6223 56bf
000001c0: c633 51bd bd6e 8abf 7595 a9bd 81b5 8f3e
000001d0: fc59 8c3f e0f6 433f 8a9d a2be 7cdb 25c0
000001e0: 9b11 7c3f 7df2 35bf 5889 b43e 6ed0 2abf
000001f0: 9a42 b23c 0157 f0bc f51e 723d d0bd d63f
00000200: 85be 3e3e c376 08bf 3ffb 1fbe 7bf3 0a40
00000210: aaf1 8f3e 1d09 b93f 4576 f13c bc78 ffbe
00000220: c8d7 083f 51db 48be ae24 39bd e601 13bf
00000230: 6ee9 823e 37a9 64bf ae71 283e 735f e2be
00000240: 0cb6 023f 9b4a 95bd 4338 86bf cded c93e
00000250: c6a7 cabe db6d 0e3f cb78 47bf 1035 193f
00000260: 18b1 833f 24e6 a43f ed39 703f 3a22 c03f
00000270: bc1c a53d 38d2 ba3d 7ba8 e83d be9e 58bf
00000280: 278c 6d3f 8968 8e3e 366d 56bf ca79 bfbf
00000290: a6d7 75be 5a2f 43bf d961 c5be f6b1 9b3f
000002a0: 96f1 c73c d67d e0bf 82bc af3e a7eb 82be
000002b0: ff2b 073f e1d8 66bf 321b 2240 b493 123f
000002c0: 2d68 f03f d788 ef3f 8cc2 6dbf a6e2 173e
000002d0: 938f 2abf b98e 4d3f ed5b 9f3f be61 94bf
000002e0: 13f6 e23f b000 a13e 4923 b2bb c992 193f
000002f0: c9d2 523f 8a05 bf3f aef2 183f ede0 24bf
00000300: 73f5 90be b69d cd3f eae7 8d3d aa5f d6be
00000310: 1290 1a40 cd2d 023f 3050 1dbf 12f2 e23f
00000320: 3ada c3bf c887 853f b680 783e 6ba5 51bf
00000330: fcf0 903f 29e7 3040 5cd1 de3f feb3 76bf
00000340: b8f2 b63d ebe8 1940 baeb 463f 2a3d 5e3f
00000350: 27f5 8a3f 2b6d 49bf b0c1 6f3e 19ad c7bf
00000360: 3de3 af3f fcdb 80bf 3299 813f 10df 5f3e
00000370: dd0d 49bf 26cc c2bf 19ae b33d af4f 9fbe
00000380: 9178 84bf 0fb1 abbe 0378 293f 7cd6 82be
00000390: f649 8b3f eeb7 fc3d 50a1 84bf 998a 333f
000003a0: 8333 42bd b874 ce3f c50b db3e e47f 44be
000003b0: 7432 aabf a3fa 1bbf 0434 983e 9090 1d3f
000003c0: ce0c 42bf 9712 6f3f 8e7a b93f c273 05be
000003d0: 1b9e 623f 91d9 52be 0191 fd3e 3238 303f
000003e0: fb73 c7be 66cd e63e d56b b3be 6d2c 6c3f
000003f0: ff8e 343f 10f7 1a3e be1a 29bf 572f 423f
-0.3899054 0.42873505 -0.57133317 1.697637 1.2446504 -0.4370698 1.3502955 0.14576946
-0.6728181 1.2710853 -0.7962222 1.4260621 -0.68124473 0.38041303 1.2237688 1.5877646
1.1873673 -0.35340112 0.56414443 1.4061496 -1.0905977 -0.86822754 1.5857486 -2.6806748
-0.12980387 1.4570254 -0.3293469 -0.2250614 -0.5290526 0.49262565 1.0558752 0.13249633
-0.18362384 -2.5841842 -0.4942774 -0.19483905 -0.5271535 -0.024348805 0.42812765 -0.17832044
-0.98312914 -0.8146851 -0.52046615 -0.64767355 0.13157344 -0.43227723 -1.579776 1.1424142
-1.0062189 -0.06259586 0.7935032 0.39572534 -0.67669207 0.7452193 -0.96284926 0.69513464
1.699442 -1.1231868 -1.0856091 -0.5724416 0.57052636 1.5665599 1.7459928 -0.023500413
0.7072091 0.3771327 -2.1720197 -0.36165068 0.88282186 -1.3255776 -1.9641234 0.28930283
0.37728387 1.365136 -0.828837 -1.8745759 -0.1521717 -0.6418024 1.0832092 -0.25816318
0.47860014 0.7748342 -0.893921 0.6983337 0.20631634 0.5442824 2.120862 0.131726
0.041694067 1.0208011 0.36177424 -0.6415734 -0.79780024 1.6267335 -1.5369551 0.93317395
0.39837575 0.6011487 -1.1002623 -0.60321593 -0.7205559 -0.46461916 0.12266062 -0.85187083
0.4859193 -0.104319274 2.2191086 0.4391671 -0.17808732 -1.3821579 1.1384662 -0.8364774
-0.051074766 -1.0815045 -0.0828046 0.28068164 1.0964961 0.76548576 -0.31760818 -2.5915213
0.98464364 -0.7107313 0.35261035 -0.6672429 0.021760274 -0.029338362 0.059111554 1.6776676
0.18627365 -0.53306216 -0.15623187 2.1711109 0.28114063 1.4455906 0.02947534 -0.498968
0.53454256 -0.19614913 -0.045200996 -0.5742477 0.25568718 -0.893207 0.16449615 -0.44213447
0.5105903 -0.072896205 -1.048592 0.3943924 -0.39581126 0.55636376 -0.7791869 0.5984659
1.028842 1.2882733 0.9383839 1.5010445 0.08062121 0.09122127 0.1136026 -0.8461722
0.9279198 0.2781413 -0.8376039 -1.4959042 -0.24008045 -0.7624413 -0.38551214 1.2163684
0.02440719 -1.7538402 0.34323508 -0.25570413 0.5280151 -0.9017468 2.5329099 0.5725663
1.8781792 1.8713635 -0.9287498 0.14832553 -0.66625327 0.802959 1.2449929 -1.1592329
1.7731346 0.31445837 -0.005436335 0.599896 0.8235288 1.4923565 0.597453 -0.6440571
-0.28312263 1.6063755 0.06929 -0.4186986 2.4150434 0.50851136 -0.6145048 1.7730124
-1.5300972 1.0432062 0.2426785 -0.8189303 1.1323543 2.764109 1.7407641 -0.96368396
0.08933014 2.4048412 0.7770344 0.8681208 1.0856065 -0.786822 0.2341373 -1.55997
1.3741223 -1.0067134 1.0124876 0.21862435 -0.7853678 -1.5218551 0.08773441 -0.3111548
-1.0349294 -0.33533522 0.6619875 -0.25554264 1.0881946 0.12339769 -1.0361729 0.7013336
-0.047412407 1.612937 0.42782417 -0.19189411 -1.3296647 -0.60929316 0.29727185 0.6154871
-0.7580079 0.9338774 1.4490526 -0.1303244 0.885225 -0.20590807 0.49524692 0.6883575
-0.38955674 0.45078582 -0.35043207 0.9225529 0.70530695 0.1513331 -0.6605643 0.75853485

B2 f4 [20]
00000000: 985a d2bf 744b 943e 51cd c3bd 0d82 483f
00000010: c7fa dabf 0be8 313f 8c15 9b3f 45f3 eebf
00000020: 5515 a1be 4d92 e2bf c7a5 e03e 7474 b9bf
00000030: 16ee 623f f4f8 713f a4a3 e53d 024c 0ebe
00000040: 7ef0 cd3e 582f b7bf 0ca4 633f e0a5 17bf
-1.6433897 0.28963816 -0.09560645 0.7832344 -1.7107781 0.69494694 1.211595 -1.866799
-0.31461588 -1.7700897 0.43876478 -1.4488664 0.8864454 0.945205 0.112128526 -0.13896182
0.40222543 -1.4311323 0.8892219 -0.5923748
