TestFiles/feastconv_Opset17.onnx (onnx, 86106 bytes, 3 tensors)

bias f4 [7]
00000000: c9ec 8cbd 9ea6 953c 2026 b6bd b9ee 9d3d
00000010: fe03 a7bc 5790 393c f94c 973c
-0.06881101 0.018267926 -0.088939905 0.07711548 -0.020387646 0.011325917 0.01846932

onnx::MatMul_93 f4 [1433, 1]
00000000: 9c89 e43b 919c 41bb f6ac 45bb 9512 a53b
00000010: e02b 88bc 29fc b4bc 3a2f 1cbc a9d7 a0bb
00000020: e3d7 08bc cb45 bc3c aa64 ad3c 4e81 303c
00000030: 56af 08bc fc45 b6bc ce36 4fbb 7739 0cbb
00000040: 286c 95bc ae0a 10bc 5d90 21bb 43ba c2bb
00000050: 9722 843c cfc3 cbbc 2318 743c 83d3 be3c
00000060: 63bc 15bc f1d5 3cbc d607 a9bc d060 b8bb
00000070: 5dfa ef3b 47f1 773c 6aca 143b 0325 7fbc
00000080: 7a35 863c e090 ec3b a716 97bc 16f0 d63c
00000090: abab 0d3a 48b7 b33c 13b5 223c 5e0b 94bb
000000a0: 427f 353b 3b74 82bc 7ccf 9cbc ef43 53bc
000000b0: b615 18bc 0044 f4bb a5a8 a2bc 88db a6bc
000000c0: 8a5e 8c3c ea97 9fbb 97bf 903c 9ed3 d03b
000000d0: 2ba9 b1bc 6025 083c 772a ce3c b8d1 7e3c
000000e0: 0b5c fd3a 98f9 b5bc 4dbc ab3b ab8d e9bb
000000f0: 37c7 48bc 7015 b23c f5d5 c13c ecb7 9d3b
00000100: 7311 26bc b6ce 1e3c a1bf a33c fff4 30bc
00000110: 29ac bb3b 202c cdba f381 5c3b 5683 9f3b
00000120: ce00 993c 6b9a 7bbc 4564 1bbc f29c 03bb
00000130: 175b 273c 9004 b5bc a92c ffba 5408 283c
00000140: e618 57bc 94f7 c4bc df76 a93c b020 97bc
00000150: c955 193c 7073 d93b a70e 3fbc 9d1c dcba
00000160: be73 eebb a1ad 48bc 5d63 5e3a fc36 19bc
00000170: 30ba bf3c 22c4 c7bc 7145 30bc 4513 29bc
00000180: 81f6 b73c 948b 7dbc 6a23 5fbb ff74 a13c
00000190: 0006 bfbc 4111 b33a 3304 af3c e6c9 d13c
000001a0: cb67 323c fe38 5ebb 281e 80bc 360d 803c
000001b0: 6198 d3bc 648a 83bc 3237 05bc 58f1 2ebc
000001c0: 91be 8a3c 1448 963a d84f eebb ea4c 4bbc
000001d0: 12fb c43b 9f22 a8bc 310a c43c c867 c53c
000001e0: 1871 58bc 5609 5dbc b668 103c abfb 913a
000001f0: aa93 18bc b917 c63c ecc5 083c 983f 0c3b
00000200: ca23 08bb 6161 babc 7b18 133c 0f93 d9bb
00000210: 1e1f fa3b f2a5 20bb 1018 6abb cba0 a83c
00000220: 6ce7 15bc 8e14 a0bc 1682 9d3a b96d c43c
00000230: 08f9 323c 9952 503c 5906 fd3a c167 a6bb
00000240: ac68 ad3a 67b0 97bc 3219 d039 8ae9 6f39
00000250: 6517 37bb 48d2 643c 0b19 983c 7561 54bc
00000260: 164c a13c be75 abbc 7d0d 16bc a748 75bc
00000270: 0a69 ec3b d9c8 37bc b0b6 073a efd9 8f3c
00000280: 61a3 38bc fd0e 053c ddf3 b1bc 111d b43c
00000290: 36eb 15bc 044a b5bc 57b4 b23c 327a 073c
000002a0: 4315 313b 0587 4fbc 0a45 f63b 8333 85bc
000002b0: d2ea 973c 7b28 213c 0535 c8bc ea91 5fbc
000002c0: 138f 3bbc bce9 62bb 6890 a6bb 4fbe 743b
000002d0: fc23 47bc 8a7c c1bc e387 4ebc a2d3 193c
000002e0: 6f1c 943b 49cc 6cbc 553c cd3c 7e28 bd3c
000002f0: 43cb 763c 5f9b b73a 81fa b8bc ded4 43bc
00000300: 14d2 15bc 8f71 87bb aa76 c6bc d1cc 613c
00000310: 635f b13b 33a0 bdba 239f 92bc 5ba0 643c
00000320: df60 923c 7291 24bc c6ff 7d3c 4efb 733c
00000330: 0dd9 ad3c 093a 593c b270 bfbc c924 c4bc
00000340: 0268 6c3a 7f7b b9bb 2ce4 913c b73e c1bc
00000350: 5c4b 8f3a c26c 1a3b 8c23 743c 1825 8dbc
00000360: 16f7 be3b 3ff8 0c3b c578 70bc 5f2c d4bc
00000370: 1d96 dfba 209d 42bb 5956 b53c 84cb 323c
00000380: 9e6e a33c f0f6 e1bb d997 afbc cc5c 08bc
00000390: 8560 283c 6ab0 cfbc 990e 433c e6d7 613c
000003a0: bca2 00bc 58ed 86bb 677b 0d3c 8dee 98bc
000003b0: e3d8 f4bb 169b 683b 8940 113c 02f2 ecbb
000003c0: bddf 1abc 6a73 9abc 3aba 1e39 98df 3bbc
000003d0: 9d53 2fbc 7cc2 d6bc e4fe e13b 2198 513b
000003e0: 25e2 23bc 18f7 133c 7ff5 9cbb 3f2d 00bc
000003f0: 1278 e4bb 555c ae3c 94b7 2cbb 84e9 0b3c
0.006974412 -0.0029542784 -0.0030162907 0.0050376155 -0.016622484 -0.022092896 -0.009532744 -0.004908521
-0.008352253 0.022982499 0.021166164 0.010773016 -0.008342585 -0.022250168 -0.003161836 -0.0021396556
-0.01824005 -0.008791609 -0.0024652698 -0.0059426143 0.016129775 -0.024873642 0.014898333 0.023294216
-0.009139153 -0.011525617 -0.02063362 -0.0056267753 0.007323547 0.015133209 0.0022703656 -0.015572789
0.016382921 0.007219419 -0.018443419 0.026237529 0.00054043037 0.021937981 0.009930867 -0.0045179566
0.002769426 -0.015924564 -0.019141905 -0.012894615 -0.00928252 -0.0074543953 -0.019855807 -0.020368353
0.017134923 -0.0048704045 0.017669482 0.006372883 -0.02168711 0.008309692 0.025166733 0.0155529305
0.0019329799 -0.022213742 0.005240953 -0.007127484 -0.012254528 0.021738738 0.023661593 0.004813185
-0.010135996 0.009692838 0.019988837 -0.010800599 0.00572731 -0.0015653409 0.0033646792 0.0048679514
0.018677142 -0.01535664 -0.009484355 -0.002008256 0.010214589 -0.022096902 -0.0019468266 0.010255892
-0.013128495 -0.024043836 0.020686565 -0.018448204 0.009358832 0.0066360757 -0.011661208 -0.0016793195
-0.007276981 -0.012248428 0.0008483434 -0.009351488 0.02340421 -0.024385516 -0.010758744 -0.010319536
0.02245641 -0.015475173 -0.0034048208 0.019709108 -0.02331829 0.0013661758 0.021364307 0.025608968
0.010889004 -0.0033908482 -0.01563938 0.0156313 -0.025829496 -0.0160572 -0.008130835 -0.010677658
0.016936572 0.0011465573 -0.0072727017 -0.012408474 0.006011375 -0.020524321 0.02393064 0.024097338
-0.013210557 -0.013490995 0.0088140275 0.0011137625 -0.00931255 0.024181234 0.0083479695 0.002140021
-0.0020773285 -0.022751512 0.008978005 -0.006639845 0.007633104 -0.0024512974 -0.0035719909 0.020584485
-0.009149414 -0.019541051 0.0012016918 0.023978101 0.0109236315 0.012715005 0.001930426 -0.0050782864
0.0013230047 -0.018516732 0.00039691624 0.00022879816 -0.0027937528 0.013966151 0.018566629 -0.012962689
0.0196896 -0.020930167 -0.009158489 -0.014970935 0.00721467 -0.011217319 0.0005177064 0.017559974
-0.011269421 0.008121249 -0.021722728 0.021986516 -0.009150317 -0.02213002 0.021814508 0.00826888
0.002702073 -0.0126664685 0.0075155543 -0.016259914 0.018544588 0.009836311 -0.024439344 -0.0136456285
-0.011447686 -0.003462418 -0.0050831325 0.0037344878 -0.012154575 -0.023618955 -0.01260564 0.009388836
0.004519991 -0.014453002 0.025053183 0.023090597 0.01506311 0.0014008096 -0.022580387 -0.011952607
-0.009144325 -0.0041334103 -0.024226505 0.013781742 0.0054129823 -0.0014467299 -0.017898148 0.013954247
0.017868457 -0.0100444425 0.015502876 0.014891459 0.021221662 0.013258466 -0.023369167 -0.023943322
0.0009018184 -0.005660474 0.017808996 -0.023589475 0.0010932493 0.002356336 0.014901053 -0.017229602
0.005827795 0.002151027 -0.014677231 -0.025900064 -0.0017058287 -0.0029695705 0.0221359 0.01091278
0.019950207 -0.0068958923 -0.021434711 -0.008322906 0.010276918 -0.025352675 0.011905336 0.013784384
-0.007851299 -0.004117649 0.008635378 -0.018668437 -0.007472144 0.003549283 0.008865484 -0.007230998
-0.009452757 -0.018853862 0.00015137429 -0.011466883 -0.010701087 -0.026215784 0.0068968404 0.0031981545
-0.0100026475 0.00903108 -0.0047900076 -0.0078232875 -0.0069723213 0.021284262 -0.0026354538 0.008539561

onnx::MatMul_94 f4 [1433, 7]
00000000: 78d8 c9bc 0c68 be3c 8c71 cdba a88f a73c
00000010: f7e6 dcb9 79ab 7fbc c3a5 b13b 642a 0f3b
00000020: 5ffa 40bb a4ee b6bc 22d0 183c 337c 53bc
00000030: b13e e43b e704 d3bc 072f 703c 15b5 7e3c
00000040: 94ce 663c 622c 2f3c 84b5 103c 41dc 0b3c
00000050: 70a7 cd3c 275c 45bc 7572 203c 9925 7d3c
00000060: 3285 d1bc 67e5 893b 49a5 a13b 280a 76bb
00000070: ecd1 c33c fec7 93bc c38e c8bc 2cb2 3f3b
00000080: f564 0f3c a3dd 22ba a87d 8d3c 675d 793b
00000090: 3da1 27ba bba0 93bc 1ad5 b03c bc86 fe3b
000000a0: a90f d33c 5525 d43c 9d58 0dbb 87e2 4c3c
000000b0: 2270 963c 0946 973c ab14 bdbb b7fa 90bb
000000c0: 2c85 af3c e598 243c e25d 6e3c 1b2c a7bc
000000d0: ecc7 5b3b 2b2b b73c db22 8bbc 92be 90bc
000000e0: 2773 e3ba d3b8 893c 4dea 323c 5519 bd3c
000000f0: 31e8 77bb 59ae 72bb 9620 1eba 2f60 be3c
00000100: 6ba2 a6bc 6c9f 4ebc 7665 883c 91fd 173c
00000110: 86ff 2c3c 96c8 273c 6b3e 9e3c 080d 71bc
00000120: f9d5 463c 7af4 2f3b 28e0 663c 3b12 1bbc
00000130: 885c c83b 329e a13c d6d6 c33c 190c 423b
00000140: de64 ac3b 74b1 ca3c 0a9e d73b 24f4 353c
00000150: 18cf bcbc 6b3e 9c3c 830c 863c 3a67 17bb
00000160: b5dd 913c f9c2 a53c fc86 cdbc ada5 c7bb
00000170: 215d b13c a72b b33c fa6c fdbb e728 c73c
00000180: 01c1 cd3c 4a15 d53c 88e9 aabc 6606 8f3c
00000190: f052 ab3c d680 1a3c c1c9 b5bb 1564 233c
000001a0: 30d4 21bc 393b 82bc 5298 a4bc dd89 88bc
000001b0: d238 bd3c 2e09 153b 0806 71bc 6b81 e3ba
000001c0: 48c3 a1bc 9d02 d4bc 4220 b13c 833c a73c
000001d0: 15a3 053c 6a92 2a3c 0182 c63c 27da a13c
000001e0: 377a bdbc 6ef7 56bc 66a3 35bc 90ad bcbb
000001f0: e7ff 4cbc 28d6 0c3c b6ef 9c3c b51d 2abc
00000200: 51c2 82bc 7692 833c ce9d bfbb d627 fabb
00000210: e4e3 18bb 25bb 4d3b 0624 7c3c 51a8 d13c
00000220: 1baf 17bc a10e 0cbc 9896 20bc 2ce5 943c
00000230: ea62 cfbc 431c cdbc 510d b7bc 91ec 83bc
00000240: 5d15 373c 22e0 983c 000d 173c a6f3 c03c
00000250: 6711 713c 24c9 9f3c 3bce a03c a4fa 913b
00000260: c1bb debb 0d54 9ebc 54fc f1bb 048b b53c
00000270: 5cbf a93c 467a e8ba 50dc fa3b c6d8 7a3c
00000280: 4a05 953c 5d18 8e3c 02bd b13a ac16 283c
00000290: 3142 4b3c 7ae0 be3c a4e8 8e3c dc56 433c
000002a0: 96bf 36bc b602 8e3b 271a 7b3b a587 28bc
000002b0: 4abf 833b 5ee2 23bc 6490 513c b5c1 e1ba
000002c0: 772e 873c 8186 5b3c 2891 bf3c af00 f9bb
000002d0: e2bd d2b9 cb03 2bbc 645a 87bb b798 aabc
000002e0: 9ba2 053c 77d7 eebb 9b73 98bc 5f24 b53c
000002f0: a298 813b b84b 303c 2b1c c43b a995 933c
00000300: 788e b33c 9076 dc3b 44c7 383c fef7 60ba
00000310: 4d22 ee3b 0b3e af3a 0757 b7bc a381 813c
00000320: e99a f4bb 1119 81bb 1402 0fbb 048b 0dbb
00000330: f711 bfbc fb70 113c c67c 843b 2280 b6bb
00000340: d3e4 6b3b 459d 6a3c 9104 24bc aa88 a53c
00000350: b839 05bc 8cea aabc 7309 83bc 00c4 3e3b
00000360: fc9b 9c3c 908c a1b9 fafc d63c 31db 3ebb
00000370: 1ebc 7cbc f822 a0bc ee09 253c d2ee 12bc
00000380: 6645 c33c 71f0 61bc 249f e43a ea23 a43c
00000390: 6018 babc 6529 6a3c 4e5e adbc 75a8 ea3b
000003a0: 028d 79bb 3cdb fc3a 3eb4 aaba d7f9 81bc
000003b0: 9780 f9bb 9164 293c 734e 78bc e360 cd3c
000003c0: 3b87 953c 4a9a 67bc 8513 cf3c 0690 923c
000003d0: 05cc 4b3c dca5 c73c 0126 973c e36f c03c
000003e0: 07f6 8c3b 65dc aab9 4da8 0a3b a4fc b93c
000003f0: 296f 99b9 df3b 9d3b 6471 ee3b 3f0d c33c
-0.024639353 0.023242973 -0.0015674098 0.020454243 -0.00042133752 -0.015604847 0.0054213717 0.0021845335
-0.0029446108 -0.02233059 0.0093269665 -0.012908029 0.006965481 -0.025759174 0.01465965 0.015546103
0.014087338 0.010691734 0.008832339 0.008536399 0.025104254 -0.012045897 0.009792914 0.0154508585
-0.025576208 0.004208255 0.0049330336 -0.0037542675 0.02390381 -0.0180397 -0.024482137 0.0029250486
0.008752097 -0.0006212836 0.017271832 0.0038050057 -0.0006394571 -0.018020978 0.02158599 0.0077675264
0.025764303 0.025896708 -0.002156771 0.01250518 0.018364016 0.018466013 -0.005770286 -0.004424419
0.021425806 0.0100462185 0.014548751 -0.020406773 0.003353591 0.022359451 -0.016984394 -0.017668996
-0.0017353044 0.016811764 0.0109201195 0.023083368 -0.0037827606 -0.0037030189 -0.00060320774 0.023239223
-0.020341119 -0.012611251 0.016649943 0.009276764 0.010558968 0.0102406945 0.019316873 -0.01471258
0.012135976 0.00268486 0.014091529 -0.009464796 0.006114546 0.019728754 0.023906153 0.0029609262
0.0052610477 0.02474282 0.006580119 0.011105571 -0.023047969 0.019072732 0.016363388 -0.00231023
0.017805913 0.020234572 -0.02508878 -0.006092748 0.021650853 0.021871401 -0.0077339383 0.024311496
0.025116445 0.026011128 -0.02086331 0.017459106 0.020913571 0.009430131 -0.0055477326 0.009972592
-0.00987725 -0.01589738 -0.020092163 -0.0166673 0.023098383 0.0022741067 -0.014710911 -0.0017357295
-0.019746438 -0.025880152 0.021621827 0.020414596 0.008156558 0.010410884 0.024231913 0.019757343
-0.023129566 -0.013120515 -0.0110863205 -0.005757995 -0.012512184 0.008595981 0.019157272 -0.010383059
-0.015961798 0.016061049 -0.005847669 -0.0076341433 -0.0023329193 0.0031392064 0.015389448 0.025592955
-0.009258057 -0.00854841 -0.009801529 0.018175684 -0.02531572 -0.02503789 -0.022345217 -0.016104015
0.011174527 0.018661562 0.009219408 0.02355368 0.014713622 0.019505091 0.019629588 0.0044549275
-0.0067972844 -0.019327188 -0.007384816 0.022161014 0.02072113 -0.0017736636 0.007655658 0.015310472
0.018190999 0.017345602 0.0013560357 0.010259312 0.012405918 0.023300398 0.017444916 0.011922564
-0.011154076 0.0043338193 0.0038315149 -0.010286246 0.004020606 -0.010002701 0.012790773 -0.0017223867
0.016501648 0.013398767 0.023384646 -0.0075989584 -0.00040195795 -0.010437916 -0.0041306484 -0.020824773
0.008156444 -0.007288869 -0.018609812 0.02211207 0.003954963 0.01076024 0.005984803 0.0180157
0.02191852 0.006728001 0.011277977 -0.00085818756 0.0072672726 0.0013369931 -0.022380365 0.015808886
-0.007464756 -0.0039397557 -0.0021821307 -0.0021597752 -0.023323996 0.008877034 0.0040431945 -0.005569474
0.0035994544 0.014319723 -0.010010854 0.020206768 -0.008131437 -0.020863794 -0.015995717 0.0029108524
0.019117348 -0.0003081304 0.026243676 -0.0029122347 -0.01542571 -0.019547924 0.010073168 -0.008968072
0.023836803 -0.013790236 0.0017442447 0.020036656 -0.022716701 0.014292096 -0.021163132 0.007161195
-0.0038078432 0.0019291411 -0.0013023687 -0.015866203 -0.007614206 0.010338918 -0.0151554225 0.025070613
0.01825296 -0.0141359065 0.025277862 0.017890941 0.012438779 0.02437108 0.018450739 0.023490852
0.0043017897 -0.00032589133 0.0021157444 0.022703476 -0.00029265255 0.004798397 0.007276701 0.023810027
