TestFiles/IR11_1.onnx (onnx, 479 bytes, 4 tensors)

W1 f4 [4, 8]
0.3047171 -1.0399841 0.7504512 0.9405647 -1.9510351 -1.3021795 0.1278404 -0.3162426
-0.016801158 -0.8530439 0.879398 0.7777919 0.066030696 1.1272413 0.46750933 -0.85929245
0.36875078 -0.95888263 0.8784503 -0.049925912 -0.18486236 -0.68092954 1.2225413 -0.15452948
-0.42832783 -0.35213354 0.5323092 0.36544406 0.4127326 0.430821 2.1416476 -0.40641502
00000000: e103 9c3e 331e 85bf 921d 403f d9c8 703f
00000010: 85bb f9bf d1ad a6bf 98e8 023e 8dea a1be
00000020: 95a2 89bc 1661 5abf 3a20 613f 5f1d 473f
00000030: 1a3b 873d 7149 903f 625d ef3e 97fa 5bbf
00000040: e7cc bc3e 5579 75bf 1ee2 603f 1d7f 4cbd
00000050: 8f4c 3dbe 6651 2ebf 3c7c 9c3f fa3c 1ebe
00000060: c94d dbbe d94a b4be 6a45 083f 7c1b bb3e
00000070: b051 d33e 9294 dc3e c110 0940 a115 d0be

B1 f4 [8]
-0.51224273 -0.81377274 0.61597943 1.1289723 -0.11394746 -0.8401565 -0.8244812 0.6505928
00000000: 5722 03bf 6953 50bf d4b0 1d3f 2a82 903f
00000010: 495d e9bd 7f14 57bf 3311 53bf 408d 263f

W2 f4 [8, 2]
0.7432542 0.54315424 -0.6655097 0.23216133 0.11668581 0.21868859 0.8714288 0.22359554
0.67891353 0.06757907 0.2891194 0.63128823 -1.4571558 -0.3196712 -0.47037265 -0.63887787
00000000: e845 3e3f 280c 0b3f d85e 2abf b3bb 6d3e
00000010: f8f8 ee3d e7ef 5f3e f515 5f3f 3bf6 643e
00000020: 47cd 2d3f e566 8a3d 7507 943e 1b9c 213f
00000030: 1584 babf f2ab a3be afd4 f0be 808d 23bf

B2 f4 [2]
-0.27514225 1.4949414
00000000: 72df 8cbe 3d5a bf3f
