TestFiles/ir11_gemm_sampling_model.onnx (onnx, 993 bytes, 6 tensors)

W1 f4 [4, 8]
0	0x3aa13d19	0.0012301534
1	0x3e98f52d	0.29874554
2	0xbe8c5bcc	-0.27413785
3	0xbf63fdd4	-0.89059186
4	0xbee8ca9c	-0.4546708
5	0xbf7ddc8c	-0.9916465
6	0x3d765923	0.0601436
7	0x3fab8c2c	1.3402152
8	0xbefc027e	-0.4922065
9	0xbf1ed771	-0.6204749
10	0x3efacc94	0.48984206
11	0x3eb6b9e5	0.356887
12	0x3dd7e36d	0.10541425
13	0xbf6e3327	-0.930468
14	0xbcefa185	-0.029251823
15	0x3f31ff64	0.6953032
16	0xbfac0f39	-1.3442146
17	0xbeea4c9d	-0.45761576
18	0xbff35b44	-1.9012227
19	0xbfa50f93	-1.2895378
20	0xbfebbdf9	-1.841735
21	0xbe70bbbb	-0.23509113
22	0xbfa23bb0	-1.2674465
23	0x3e8ae329	0.27126434
24	0x3e20835b	0.15675108
25	0xbe3f6ad3	-0.18693094
26	0xc0211297	-2.5167596
27	0xbf09e7c7	-0.5386929
28	0xbd46a8ed	-0.048500944
29	0x3de80e8b	0.11330899
30	0xbfc3db7d	-1.5301358
31	0xbef49c14	-0.47775328

B1 f4 [8]
0	0xbf7a803a	-0.9785191
1	0xbf4f0ff5	-0.80883723
2	0x3f87cb87	1.0608987
3	0xbf4eba98	-0.8075347
4	0xbd05357b	-0.032521706
5	0x3f626760	0.8843899
6	0xbf1566d7	-0.58360046
7	0xbde4c3fe	-0.11170195

W2 f4 [8, 8]
0	0x3de23b06	0.11046414
1	0x3d82a005	0.063781776
2	0xbf9ccea1	-1.2250558
3	0x3d9bef69	0.07614023
4	0x3fadeded	1.3588234
5	0xbfc608d6	-1.5471447
6	0x3f5c0081	0.8593827
7	0x3df46fe2	0.119354025
8	0xbf243767	-0.6414704
9	0x400006d3	2.0004165
10	0x3f432374	0.7622597
11	0xbf99824c	-1.1992888
12	0x3d989bf7	0.07451623
13	0x3f13a1ee	0.5766896
14	0xbe41501a	-0.18878213
15	0x3f2ed335	0.68291026
16	0xbd883a3c	-0.06651732
17	0x3f2ad0bc	0.66724753
18	0x3fb82182	1.4385226
19	0xbf2cf834	-0.6756623
20	0x3e500391	0.2031386
21	0xbeed36a7	-0.4633076
22	0x3e0252a7	0.12726842
23	0xbf97f5fe	-1.1871946
24	0xbf144d1c	-0.5793016
25	0xbe48e799	-0.19619597
26	0x3f661564	0.8987639
27	0x3f9296a2	1.145222
28	0xbfa9695c	-1.3235278
29	0xbf4b6daf	-0.7946424
30	0x3f259b76	0.6469034
31	0xbfff079d	-1.9924198
32	0xbeed249a	-0.46316987
33	0xbdc73e5e	-0.097286925
34	0x3fa0e5de	1.257015
35	0x3f307cc6	0.6894039
36	0xbea78884	-0.3272134
37	0xbebcb5fb	-0.3685759
38	0xbe80199d	-0.2501954
39	0x3fc30303	1.5235294
40	0xbedb2616	-0.42802495
41	0xbe9b7bff	-0.3036804
42	0x3eb4868e	0.35258907
43	0xbdf7567f	-0.12077045
44	0xbe4a04e0	-0.19728422
45	0xbf8e99c1	-1.1140672
46	0xbc3cc48a	-0.011521468
47	0xbee31d14	-0.44358122
48	0x3f9543ad	1.1661278
49	0x3f2730cf	0.6530885
50	0xbcc5c8d4	-0.024143614
51	0x3f2b1b05	0.66838104
52	0xbeae0362	-0.33986956
53	0x3f86ac14	1.0521264
54	0xbbb0eecc	-0.0053995606
55	0x3f15588c	0.58338237
56	0xbfa53bfd	-1.2908932
57	0x3eb1800c	0.34668005
58	0xbfd81713	-1.6882042
59	0xc00242d4	-2.0353289
60	0xbe9be465	-0.3044769
61	0xbf6661a8	-0.8999276
62	0x3e27fd75	0.1640528
63	0x400faa18	2.2447567

B2 f4 [8]
0	0xbf54ebcf	-0.83172315
1	0xbf1fbac4	-0.62394357
2	0x3e525569	0.20540394
3	0x3efc6c3d	0.4930133
4	0xbe34a3cb	-0.17640607
5	0xbe52df67	-0.20593034
6	0x3f33d49d	0.702463
7	0x3f0518ab	0.51990765

W3 f4 [8, 2]
0	0xbf844f7d	-1.0336758
1	0xbda229d1	-0.07918132
2	0x3d1088f1	0.035286848
3	0xbf86f95a	-1.0544846
4	0x3e8509a1	0.2598391
5	0xbf5ba309	-0.85795647
6	0x3f78d95d	0.9720667
7	0x3e455f2f	0.19274591
8	0x3db6e652	0.08930649
9	0xbf174da2	-0.59102833
10	0xbdf2e9b5	-0.11860982
11	0xbfffb627	-1.9977463
12	0xbf90d1f6	-1.1314075
13	0x3eb9c623	0.3628398
14	0xc0083a71	-2.128567
15	0x3f58bb56	0.8466085

B3 f4 [2]
0	0xbfdf8017	-1.7460965
1	0x3f41b99d	0.7567385
