TestFiles/NN4.onnx (onnx, 538 bytes, 4 tensors)

W1 f4 [4, 8]
0	0x3f154501	0.58308417
1	0x3e0be94e	0.13663217
2	0xbf5f8087	-0.8730549
3	0x3fd1670a	1.635957
4	0x3f0157e4	0.50524735
5	0x3d285337	0.041094985
6	0x3fa8c251	1.3184301
7	0xbeebf254	-0.4608332
8	0xc006ee57	-2.108297
9	0xbfea85be	-1.8322065
10	0x3f2cfb27	0.6757073
11	0x3f7f9ad8	0.9984565
12	0x3dd5959f	0.104289286
13	0x3ec1fb9e	0.3788728
14	0xbcdcf15d	-0.02697056
15	0x3eecd234	0.46254122
16	0xbe3914d4	-0.18074352
17	0x3efaa26e	0.4895205
18	0xbefea545	-0.49735466
19	0xc005b19a	-2.088965
20	0xbe3f5af9	-0.18687047
21	0xbfad965e	-1.3561513
22	0xbf9891a0	-1.1919441
23	0x3f5d963c	0.86557364
24	0xbc0bd21d	-0.008533982
25	0x3fb8955e	1.4420583
26	0xbf940444	-1.1563802
27	0xbf8e432b	-1.1114248
28	0x3fbc9e69	1.4735843
29	0x3ec3e9e6	0.38264388
30	0x3f1edbb0	0.62053967
31	0xbeae4f09	-0.34044674

B1 f4 [8]
0	0xbdc1186b	-0.094284855
1	0x3e98710b	0.29773745
2	0xbf56bb9c	-0.8388002
3	0xbfed3f3a	-1.853492
4	0x3cfa1260	0.03052634
5	0x3ff738cf	1.9314212
6	0xbf1c6b50	-0.61101246
7	0x3c88bf23	0.016692704

W2 f4 [8, 2]
0	0xbed69689	-0.41911724
1	0xbd6627b9	-0.056190226
2	0x40026209	2.0372336
3	0x3f9347eb	1.1506323
4	0xbd920b5f	-0.07131075
5	0xbf31960b	-0.6936957
6	0x3f851f7c	1.0400233
7	0x3e34b78f	0.17648147
8	0x3f646acf	0.89225477
9	0xbf9f2bbc	-1.2435222
10	0xbf86d937	-1.0535039
11	0xbdb73c0d	-0.08947001
12	0x3eccb0bb	0.39978585
13	0x3d6a670b	0.057227176
14	0xbf2f2ae4	-0.6842482
15	0x3f873fb2	1.0566313

B2 f4 [2]
0	0x40021317	2.0324152
1	0xbe17cd4e	-0.14824411
