TestFiles/simple_4_layer_net_ir11_200.onnx (onnx, 136808 bytes, 6 tensors)

W1 f4 [200, 128]
0.3047171 -1.0399841 0.7504512 0.9405647 -1.9510351 -1.3021795 0.1278404 -0.3162426
-0.016801158 -0.8530439 0.879398 0.7777919 0.066030696 1.1272413 0.46750933 -0.85929245
0.36875078 -0.95888263 0.8784503 -0.049925912 -0.18486236 -0.68092954 1.2225413 -0.15452948
-0.42832783 -0.35213354 0.5323092 0.36544406 0.4127326 0.430821 2.1416476 -0.40641502
-0.51224273 -0.81377274 0.61597943 1.1289723 -0.11394746 -0.8401565 -0.8244812 0.6505928
0.7432542 0.54315424 -0.6655097 0.23216133 0.11668581 0.21868859 0.8714288 0.22359554
0.67891353 0.06757907 0.2891194 0.63128823 -1.4571558 -0.3196712 -0.47037265 -0.63887787
-0.27514225 1.4949414 -0.86583114 0.96827835 -1.6828698 -0.33488503 0.16275306 0.58622235
0.7112266 0.79334724 -0.34872508 -0.4623518 0.8579759 -0.19130433 -1.2756863 -1.1332872
-0.9194523 0.49716073 0.14242573 0.69048536 -0.42725265 0.1585397 0.6255904 -0.30934653
0.45677525 -0.6619259 -0.36305386 -0.3817379 -1.1958396 0.48697248 -0.46940234 0.012494119
0.48074666 0.44653118 0.6653851 -0.098485485 -0.4232983 -0.07971821 -1.6873344 -1.4471124
-1.3226997 -0.9972468 0.39977422 -0.9054791 -0.37816256 1.2992283 -0.35626397 0.73751557
-0.93361765 -0.20543756 -0.95002204 -0.33903307 0.8403081 -1.7273204 0.43442366 0.2377356
-0.59414995 -1.4460578 0.07212951 -0.52949274 0.23267621 0.021852145 1.6017789 -0.23935562
-1.0234975 0.17927563 0.21999669 1.3591876 0.83511126 0.35687107 1.4633029 -1.188763
-0.63975155 -0.92657596 -0.38980982 -1.3766861 0.63515097 -0.2222227 -1.4708062 -1.0155791
0.31351385 0.83812654 1.9967309 2.9138625 0.41440943 -0.98953813 -2.1320462 0.26771146
-0.8129411 -0.41535726 -0.6120968 -0.14079088 1.0659802 0.15704857 -0.15863484 -1.0356537
-1.674683 -0.48630792 -0.053782552 1.7679299 0.13027452 0.9827395 -0.4992956 -1.1849438
-0.96511674 -0.72522604 2.1284697 -0.8213867 0.8384892 -0.90292716 0.93157303 0.38495097
-0.15663789 -0.040762525 -0.6547877 0.4460722 -0.45498347 -1.2256057 -1.2779375 0.17258792
1.5790913 0.1599916 -0.11863833 0.28582615 1.3060018 0.2193825 -0.41092724 1.1062887
0.42875645 1.535756 0.18323444 -1.2244691 -1.3681592 1.6509279 1.7236657 -0.1795192
-0.38318732 1.4614443 -1.1070457 -0.894727 0.6433268 -0.39460513 -0.0051218667 -0.1634429
0.33757454 1.4074819 0.090584904 0.6439388 -2.050172 -0.0487184 -0.84323025 -1.2188131
-0.8781524 -0.33412343 0.91590255 -1.3263928 0.030631492 -0.48416942 -0.3276731 1.0027578
0.53811544 1.337398 -0.15450568 -0.69594264 -0.22385882 0.24249679 0.17657335 -1.084388
0.09048978 0.22822833 2.517474 1.8768446 -0.85324335 -0.28738335 -1.463442 -0.590707
0.315605 1.2058536 -0.72908384 -0.65414643 -2.147289 -0.16266592 -1.0624144 -0.52943945
-0.8768608 -0.094262555 -1.7577283 -1.4670452 2.1292472 -1.2874225 -1.0967855 1.8369136
2.9050672 -1.1715666 -0.36824897 0.34155557 1.7286977 -0.98685706 -0.24527785 0.77733755
00000000: e103 9c3e 331e 85bf 921d 403f d9c8 703f
00000010: 85bb f9bf d1ad a6bf 98e8 023e 8dea a1be
00000020: 95a2 89bc 1661 5abf 3a20 613f 5f1d 473f
00000030: 1a3b 873d 7149 903f 625d ef3e 97fa 5bbf
00000040: e7cc bc3e 5579 75bf 1ee2 603f 1d7f 4cbd
00000050: 8f4c 3dbe 6651 2ebf 3c7c 9c3f fa3c 1ebe
00000060: c94d dbbe d94a b4be 6a45 083f 7c1b bb3e
00000070: b051 d33e 9294 dc3e c110 0940 a115 d0be
00000080: 5722 03bf 6953 50bf d4b0 1d3f 2a82 903f
00000090: 495d e9bd 7f14 57bf 3311 53bf 408d 263f
000000a0: e845 3e3f 280c 0b3f d85e 2abf b3bb 6d3e
000000b0: f8f8 ee3d e7ef 5f3e f515 5f3f 3bf6 643e
000000c0: 47cd 2d3f e566 8a3d 7507 943e 1b9c 213f
000000d0: 1584 babf f2ab a3be afd4 f0be 808d 23bf
000000e0: 72df 8cbe 3d5a bf3f 1ca7 5dbf 17e1 773f
000000f0: 4768 d7bf 0d76 abbe bda8 263e ab12 163f
00000100: f212 363f ce18 4b3f 188c b2be 60b9 ecbe
00000110: 4fa4 5b3f 48e5 43be b049 a3bf 8e0f 91bf
00000120: 3a61 6bbf da8b fe3e 0dd8 113e a6c3 303f
00000130: dcc0 dabe 3b58 223e b126 203f ab62 9ebe
00000140: 72de e93e fa73 29bf 32e2 b9be 2673 c3be
00000150: 4611 99bf 7554 f93e 8155 f0be 22b4 4c3c
00000160: 6d24 f63e bc9f e43e ae56 2a3f c2b2 c9bd
00000170: 8eba d8be 4d43 a3bd 93fa d7bf fb3a b9bf
00000180: 394e a9bf 914b 7fbf 35af cc3e 7acd 67bf
00000190: 869e c1be 1d4d a63f 3b68 b6be d2cd 3c3f
000001a0: 9101 6fbf 395e 52be a534 73bf be95 adbe
000001b0: 6f1e 573f d618 ddbf c76c de3e f670 733e
000001c0: 361a 18bf 6c18 b9bf a3b8 933d d68c 07bf
000001d0: ac42 6e3e 4503 b33c 1707 cd3f a419 75be
000001e0: f701 83bf 0894 373e d046 613e dcf9 ad3f
000001f0: dac9 553f ceb7 b63e 824d bb3f 6329 98bf
00000200: c2c6 23bf 1534 6dbf 2795 c7be 4037 b0bf
00000210: 4199 223f 598e 63be 6143 bcbf 7ffe 81bf
00000220: e384 a03e 768f 563f e194 ff3f b97c 3a40
00000230: 792d d43e 5f52 7dbf 7273 08c0 7a11 893e
00000240: e81c 50bf b5a9 d4be 60b2 1cbf 7c2b 10be
00000250: 0a72 883f 57d1 203e 2c71 22be 4d90 84bf
00000260: 035c d6bf 5afd f8be 184b 5cbd 874b e23f
00000270: af66 053e d194 7b3f aca3 ffbe 3dac 97bf
00000280: e411 77bf 6aa8 39bf d938 0840 6646 52bf
00000290: 3aa7 563f 3c26 67bf 927b 6e3f 4b18 c53e
000002a0: af65 20be 9bf6 26bd 2ba0 27bf 9363 e43e
000002b0: 98f3 e8be a6e0 9cbf 7593 a3bf e3ba 303e
000002c0: aa1f ca3f d7d4 233e a7f8 f2bd ce57 923e
000002d0: 112b a73f cea5 603e 0e65 d2be de9a 8d3f
000002e0: f785 db3e a793 c43f cfa1 3b3e 67bb 9cbf
000002f0: d71f afbf 9b51 d33f 14a1 dc3f e2d3 37be
00000300: 2131 c4be 9b10 bb3f acb3 8dbf d40c 65bf
00000310: 11b1 243f af09 cabe 55d5 a7bb 935d 27be
00000320: 92d6 ac3e 5e28 b43f 9484 b93d 2cd9 243f
00000330: 0536 03c0 f28c 47bd f0dd 57bf 1102 9cbf
00000340: 98ce 60bf 3a12 abbe 9778 6a3f 3dc7 a9bf
00000350: e5ee fa3c 0ee5 f7be c5c4 a7be 5e5a 803f
00000360: efc1 093f dc2f ab3f bd36 1ebe 4c29 32bf
00000370: 3f3b 65be 1451 783e a5cf 343e 3acd 8abf
00000380: b552 b93d b0b4 693e 4b1e 2140 723c f03f
00000390: 286e 5abf e923 93be 1152 bbbf 9338 17bf
000003a0: fb96 a13e 6959 9a3f 3da5 3abf 2476 27bf
000003b0: 2f6d 09c0 e591 26be 32fd 87bf 5889 07bf
000003c0: f379 60bf ba0c c1bd 3efd e0bf 23c8 bbbf
000003d0: 9645 0840 43ca a4bf 7863 8cbf fc1f eb3f
000003e0: 9fec 3940 e5f5 95bf 218b bcbe 5fe0 ae3e
000003f0: f745 dd3f aaa2 7cbf 1e2a 7bbe 98ff 463f

B1 f4 [128]
0.032209296 -1.7191478 1.4230025 -0.3531663 -0.14232506 0.9715998 0.19759968 1.003842
0.6034101 0.20378706 0.31044272 -1.1227727 -0.14898013 1.0840471 -0.89864004 -0.71527606
-0.8796243 0.1533806 1.4025289 0.54715997 -2.1769626 0.648625 -0.44209006 0.50938237
-0.14950018 -0.8604566 -0.071471594 -0.4414701 0.30771494 -0.88600504 -1.1247698 0.73208183
1.1088395 0.5800578 -0.64877284 -0.7400699 -0.6824892 0.8903949 -0.82504886 0.88404053
0.63690317 1.2377269 1.063153 0.5426556 -1.4686812 0.6101284 0.11547339 -0.37325373
1.3622242 -0.15133567 -0.5294489 1.1240562 -0.4050927 -0.5794932 -1.1271541 -0.820176
-0.73438936 0.6210475 -1.0190723 -1.8578389 0.3032298 -0.6339513 -0.016266918 1.282416
0.071544744 1.5096211 -0.06814687 1.0069565 -0.54742724 0.10769065 -0.932968 -0.8141991
-0.22466643 -1.328534 0.15935998 -0.30275998 0.23457994 -1.3131909 0.70173234 1.6976137
1.486533 1.9039066 0.042430993 -0.35232785 0.48758355 -0.23821977 -1.7404372 0.8192995
-0.23440188 -1.4673527 -0.50828224 -0.21166015 0.0118325185 0.023844996 1.3690197 -1.2885405
-0.15214418 -0.8789638 1.2561682 -0.5614541 -0.34382984 1.0496954 1.3247749 1.4726236
-1.6431131 0.4829141 0.27011696 -0.051226147 0.066568114 1.285774 1.0385892 0.89691323
0.2069142 2.2705908 -0.40062284 -1.6159614 -0.265244 0.057737745 1.3031842 -0.51097804
0.49123007 -1.4772443 1.0814179 0.06831942 -0.28055608 2.1316524 1.0699071 -1.0398419
00000000: e5ed 033d 090d dcbf f224 b63f 37d2 b4be
00000010: a9bd 11be c4ba 783f 9257 4a3e e57d 803f
00000020: 1679 1a3f 8ead 503e 59f2 9e3e 04b7 8fbf
00000030: 3f8e 18be 0ec2 8a3f 460d 66bf 551c 37bf
00000040: 0f2f 61bf ce0f 1d3e 1186 b33f ad12 0c3f
00000050: 5b53 0bc0 4a0c 263f a159 e2be e266 023f
00000060: 9316 19be e246 5cbf b35f 92bd 5e08 e2be
00000070: d08c 9d3e 3ad1 62bf 75f8 8fbf b769 3b3f
00000080: 74ee 8d3f ab7e 143f fa15 26bf 3975 3dbf
00000090: 9db7 2ebf ecf0 633f 6736 53bf 7b50 623f
000000a0: 160c 233f d66d 9e3f 6615 883f 7aeb 0a3f
000000b0: bffd bbbf 6031 1c3f 507d ec3d 1d1b bfbe
000000c0: 5d5d ae3f bdf7 1abe f789 07bf 13e1 8f3f
000000d0: 4f68 cfbe ab59 14bf 9646 90bf 0ef7 51bf
000000e0: f100 3cbf f8fc 1e3f f670 82bf aacd edbf
000000f0: f040 9b3e a24a 22bf 3342 85bc 3526 a43f
00000100: 0d86 923d 443b c13f 9690 8bbd f3e3 803f
00000110: 3124 0cbf ea8c dc3d fed6 6ebf 5a6f 50bf
00000120: f50e 66be 670d aabf 432f 233e 5b03 9bbe
00000130: b935 703e a416 a8bf bba4 333f 684b d93f
00000140: b746 be3f 36b3 f33f 1fcc 2d3d 5164 b4be
00000150: 8da4 f93e e2ef 73be a5c6 debf 9dbd 513f
00000160: 0c07 70be 37d2 bbbf c91e 02bf 70bd 58be
00000170: 2edd 413c 9556 c33c 0a3c af3f e5ee a4bf
00000180: afcb 1bbe c603 61bf 1fca a03f 75bb 0fbf
00000190: 770a b0be 6b5c 863f 3992 a93f ee7e bc3f
000001a0: 8851 d2bf 8440 f73e c54c 8a3e 82d2 51bd
000001b0: dd54 883d 3e94 a43f 7ef0 843f 1b9c 653f
000001c0: 51e1 533e 5c51 1140 701e cdbe d3d7 cebf
000001d0: 10ce 87be 6a7e 6c3d bdce a63f 75cf 02bf
000001e0: 8282 fb3e 5716 bdbf e76b 8a3f 0deb 8b3d
000001f0: 0ca5 8fbe fe6c 0840 b7f2 883f 8a19 85bf

W2 f4 [128, 64]
-0.10939177 2.7363195 1.9788167 0.92296314 -1.8470482 1.3321502 -0.6351852 1.3235179
-0.72266847 0.48882955 -0.64028263 -0.3632803 0.6221966 -1.3188984 2.372418 -1.0272214
-1.0831503 0.62513375 1.2919412 -0.32370275 -1.0714692 -0.9223789 -1.0300195 0.30817962
-0.06998612 0.4258326 0.36486942 0.82431227 -0.40994403 -0.7382047 0.15629406 -0.05499001
0.252952 -0.71171296 0.6422173 -1.1783733 -0.44038466 1.1290413 -1.131315 1.050243
-1.4090993 -1.5852258 -1.4938623 0.116806164 0.7295957 1.2925941 1.2128707 0.8626986
-0.8317835 -0.8405035 0.7877923 1.4213084 -1.0311409 1.2939993 -1.9203374 0.3899251
-0.10380727 -0.20418975 0.03127113 -0.8537302 0.4460781 0.06066848 0.9353115 1.5903904
0.12691692 -0.8187184 -1.1378992 1.6982518 1.5703729 0.8873716 0.059853904 0.8151656
1.3044654 -0.617957 0.029795302 -1.1062355 -0.12906162 1.5442735 1.0785478 0.1350068
-2.693233 -0.65579265 0.102405965 -0.21591341 0.032772582 0.24258992 -0.53368074 -0.00753095
-0.14944339 -0.70320266 1.8463377 -0.47645855 -2.2542093 1.7832658 -0.846276 0.89990836
-0.68088645 0.5692781 -0.04814736 1.0003308 -0.21370424 -0.6553199 0.25701985 -0.38249174
-1.9291729 -0.60150075 2.868769 -1.8213729 0.24104983 -0.24289604 1.8364199 -1.1110383
0.101303436 0.6861977 -0.17929468 -0.76755303 -0.022196166 -0.30949625 -0.3123025 0.93071234
0.40294957 0.5517669 0.3302962 0.9598804 1.3042597 -0.28671324 0.8194689 -1.2961884
-2.253056 1.826405 -0.33335844 0.25247285 -1.2252158 -1.2713437 -0.7129439 0.6428977
-0.5165428 -0.33579046 -0.74451107 1.165788 0.86853004 -0.48414823 0.68411624 -0.24523701
-0.33754924 -0.049710773 0.64323395 -0.8921995 0.5023946 2.4978209 0.18312117 0.03571809
-0.084167674 0.47821167 -1.6104039 1.7010843 0.9811869 -0.6445159 0.03154723 -0.5573482
0.29923502 0.061350863 0.22863355 -1.0283215 -0.4815435 1.146058 -0.53379136 -2.6434946
-0.15063038 2.4114912 0.84887767 -0.5841458 -0.050601777 0.67985934 -1.7562518 -0.856059
0.39834687 1.5944866 -0.4393232 1.5670173 -0.7543236 -3.3855126 0.74381083 0.54039896
0.7361843 0.6971049 0.19175005 -0.25881517 -0.22068837 -0.46040142 -0.40039077 -1.8110348
-1.2143079 -0.1634213 -2.240867 -2.00784 -0.33428216 -0.12833092 -0.31335536 -2.3799074
1.5523952 -1.4362307 -0.8181611 -1.261768 1.2990309 0.42142013 -0.47324312 -0.5436559
0.17959324 -1.2465543 0.3807394 -0.54864484 0.5196392 0.4857225 -0.5936116 -2.0527115
-0.24682523 -1.449473 0.07863469 -0.25657186 -0.5879949 -1.2955623 1.1867892 -0.4536823
2.3533509 0.03492961 0.35158935 0.039212193 0.34157172 1.0926874 1.1042264 -1.7666078
0.8554974 0.49713942 0.0358922 1.7125509 1.7527668 0.90459627 -0.543534 -1.1924832
0.75440013 1.3595335 -2.0286577 1.0862948 -0.25486553 -1.8090029 0.46939614 0.90938663
-0.35134867 -1.0573547 1.712091 -0.668637 1.1594723 -1.5130503 0.41600505 0.38750717
00000000: cb08 e0bd dc1f 2f40 de49 fd3f 5047 6c3f
00000010: 136c ecbf e683 aa3f 7f9b 22bf 0969 a93f
00000020: cd00 39bf de47 fa3e 90e9 23bf e0ff b9be
00000030: 4748 1f3f aad1 a8bf b2d5 1740 fe7b 83bf
00000040: aba4 8abf c408 203f 545e a53f 5ebc a5be
00000050: e725 89bf 0621 6cbf aed7 83bf b8c9 9d3e
00000060: e254 8fbd bb06 da3e 2ad0 ba3e 2106 533f
00000070: 2fe4 d1be fcfa 3cbf 8d0b 203e 343d 61bd
00000080: ed82 813e d232 36bf 5a68 243f f0d4 96bf
00000090: 197a e1be 6d84 903f eece 90bf 5d6e 863f
000000a0: 5e5d b4bf aee8 cabf e136 bfbf 1238 ef3d
000000b0: c9c6 3a3f b973 a53f 593f 9b3f d1d9 5c3f
000000c0: c3ef 54bf 3d2b 57bf c2ac 493f 6fed b53f
000000d0: 6dfc 83bf c5a1 a53f 9ecd f5bf 43a4 c73e
000000e0: e898 d4bd 1e17 51be 2816 003d 108e 5abf
000000f0: 5964 e43e 837f 783d 9370 6f3f ea91 cb3f
00000100: 82f6 013e 8797 51bf aea6 91bf 5160 d93f
00000110: fb01 c93f c92a 633f 5e29 753d b1ae 503f
00000120: b9f8 a63f 6e32 1ebf 4715 f43c 2099 8dbf
00000130: bb28 04be c1aa c53f db0d 8a3f 393f 0a3e
00000140: ee5d 2cc0 07e2 27bf 38ba d13d 6818 5dbe
00000150: 8b3c 063d 7e69 783e 4d9f 08bf 30c6 f6bb
00000160: b007 19be 1705 34bf cb54 ec3f 60f2 f3be
00000170: f744 10c0 0e42 e43f 8ba5 58bf 6560 663f
00000180: 934e 2ebf 36bc 113f 2b36 45bd d70a 803f
00000190: 49d5 5abe 0cc3 27bf 1b98 833e f5d5 c3be
000001a0: 23ef f6bf f4fb 19bf e999 3740 bf22 e9bf
000001b0: c4d5 763e bdb9 78be cf0f eb3f 8136 8ebf
000001c0: 2d78 cf3d a7aa 2f3f 0699 37be 5b7e 44bf
000001d0: bcd4 b5bc 4b76 9ebe 1de6 9fbe 2a43 6e3f
000001e0: 684f ce3e 9840 0d3f 951c a93e b9ba 753f
000001f0: fbf1 a63f 14cc 92be b7c8 513f 80e9 a5bf
00000200: 1232 10c0 a4c7 e93f f5ad aabe 1f44 813e
00000210: dfd3 9cbf 64bb a2bf 7e83 36bf f294 243f
00000220: 263c 04bf baec abbe 4798 3ebf 8b38 953f
00000230: fc57 5e3f 47e2 f7be 3e22 2f3f 691f 7bbe
00000240: 41d3 acbe 869d 4bbd fbaa 243f 3067 64bf
00000250: ef9c 003f 4cdc 1f40 1e84 3b3e 224d 123d
00000260: 1a60 acbd 29d8 f43e b721 cebf 21bd d93f
00000270: 112f 7b3f fefe 24bf ab37 013d 5fae 0ebf
00000280: 5535 993e 0b4b 7b3d ea1e 6a3e 0aa0 83bf
00000290: df8c f6be 07b2 923f 8da6 08bf 042f 29c0
000002a0: da3e 1abe df55 1a40 0c50 593f 948a 15bf
000002b0: cf43 4fbd 430b 2e3f dccc e0bf af26 5bbf
000002c0: 1ff4 cb3e 2318 cc3f f8ee e0be 0694 c83f
000002d0: 5a1b 41bf 3dac 58c0 636a 3e3f 9657 0a3f
000002e0: 9376 3c3f 7775 323f 205a 443e 6c83 84be
000002f0: 22fc 61be bcb9 ebbe 0500 cdbe fdcf e7bf
00000300: 716e 9bbf ea57 27be 5d6a 0fc0 7380 00c0
00000310: 0827 abbe 2e69 03be 1d70 a0be 6750 18c0
00000320: e3b4 c63f 68d6 b7bf 0173 51bf 9d81 a1bf
00000330: a546 a63f 61c4 d73e ec4c f2be 082d 0bbf
00000340: 4ae7 373e 178f 9fbf 46f0 c23e fd73 0cbf
00000350: 1307 053f 9fb0 f83e eef6 17bf a05f 03c0
00000360: c1bf 7cbe 5588 b9bf 390b a13d 635d 83be
00000370: d586 16bf fcd4 a5bf b5e8 973f 0c49 e8be
00000380: 4d9d 1640 5a12 0f3d 8503 b43e f79c 203d
00000390: 7de2 ae3e 2edd 8b3f 4a57 8d3f 3420 e2bf
000003a0: e101 5b3f 0f89 fe3e b303 133d de34 db3f
000003b0: aa5a e03f 9f93 673f 0b25 0bbf 4aa3 98bf
000003c0: 5e20 413f 3205 ae3f 87d5 01c0 b50b 8b3f
000003d0: bc7d 82be 688d e7bf b154 f03e 90cd 683f
000003e0: f9e3 b3be 6657 87bf cc25 db3f cb2b 2bbf
000003f0: 9769 943f a2ab c1bf 9dfe d43e 5767 c63e

B2 f4 [64]
0.4850897 -0.7129628 0.23777634 -0.049802523 0.4704217 -0.3210779 -1.2083079 0.67237103
0.54861915 1.415299 -1.316229 -0.0703822 -0.23040019 -0.3962155 -1.5410199 -1.0662847
0.2705213 -0.49974945 -0.8264097 1.4303958 2.3737211 -0.056430012 -1.502178 0.39640442
-2.0853705 -1.3501682 0.41364893 -1.3837342 -0.29603386 -1.4836276 0.056259513 1.1232405
-0.6128487 -0.019416418 -0.81584597 -0.74578935 -0.8313706 0.78593016 -1.413502 -0.33185408
0.4098169 0.9097984 0.44060737 -0.07263346 -0.56888896 0.92531633 -0.86722434 -0.8522034
1.3524991 0.36026174 0.39560646 0.59854925 -0.09485496 -1.4376931 0.25116658 -0.018234277
-0.85907257 -1.089052 -0.046537176 -1.3577996 -0.143408 -0.2640398 -0.11914974 0.4026559
00000000: ad5d f83e bb84 36bf a47b 733e bbfd 4bbd
00000010: 1ddb f03e 5364 a4be d5a9 9abf 8220 2c3f
00000020: 4e72 0c3f 8528 b53f 317a a8bf 8b24 90bd
00000030: 07ee 6bbe c2dc cabe 2440 c5bf 047c 88bf
00000040: c581 8a3e 29df ffbe 968f 53bf 3617 b73f
00000050: 0ceb 1740 2823 67bd 5e47 c0bf 85f5 ca3e
00000060: b676 05c0 50d2 acbf cbc9 d33e 341e b1bf
00000070: c091 97be 82e7 bdbf 6070 663d 58c6 8f3f
00000080: a7e3 1cbf 2e0f 9fbc 48db 50bf 0dec 3ebf
00000090: b4d4 54bf b832 493f a2ed b4bf c7e8 a9be
000000a0: 85d3 d13e 8ce8 683f 4a97 e13e dac0 94bd
000000b0: b5a2 11bf 88e1 6c3f 6a02 5ebf 012a 5abf
000000c0: b11e ad3f 3a74 b83e ee8c ca3e 863a 193f
000000d0: 5143 c2bd 5406 b8bf e898 803e 0d60 95bc
000000e0: 2eec 5bbf 0e66 8bbf c49d 3ebd 61cc adbf
000000f0: 8cd9 12be 3a30 87be c704 f4bd ea28 ce3e

W3 f4 [64, 2]
0.62195456 -0.711497 0.8697915 -0.21937072 1.7533014 -0.5854209 -1.61133 0.83364207
0.4256209 1.2016615 0.3096438 2.340009 -0.18888801 1.0463018 -0.5254574 0.49177653
0.67802244 0.8325628 0.7763266 -3.236735 -0.068677254 -0.57510763 -0.37788522 -0.28340977
0.977474 0.20257922 -0.50752324 -1.4682648 1.5330577 -0.647318 -0.13070644 2.1388688
-0.6201076 -0.27567923 0.23217928 -1.6059465 -1.7217989 -0.4816132 -0.44700313 0.13422622
-0.9779943 0.43398044 -2.1567168 -0.0702914 0.3601763 0.32844424 -0.16277649 -0.6603386
-0.1918704 1.2339592 -0.59946746 0.97811073 1.1372447 -1.7358918 -0.128151 -0.9777417
-1.5018338 0.7920308 0.47332293 0.2634594 -1.0854969 0.21046427 -1.3104632 0.07726194
-0.6615508 1.0507908 -0.363145 0.23124216 0.23336802 -0.075799614 0.10533209 0.30378023
-0.896394 0.40293935 0.8638642 0.39734805 -0.35417342 0.17440167 -0.3637612 -0.118739925
-1.1876873 1.380066 1.9354875 -0.7039308 0.78617096 1.4578682 -0.95762706 -2.1584327
1.5167993 -0.010324624 -0.5194907 0.047339402 -0.36907917 2.9594576 -0.53070754 0.3273254
1.2922459 1.2874272 1.0959878 -0.42567575 -0.15209864 -2.1744647 -0.074495435 0.03280671
0.7417232 1.7954874 0.7113097 1.0706452 -0.01746604 1.2842976 0.011132329 1.1406062
0.8044996 0.39272574 -1.540729 1.093347 0.37813562 0.702575 0.31354132 0.48593026
1.3006539 -0.47392353 0.46763855 -0.777435 0.5766801 0.25128713 -0.63096875 0.09366394
00000000: 6a38 1f3f ab24 36bf a8aa 5e3f b8a2 60be
00000010: 2e6c e03f 25de 15bf 1040 cebf 9169 553f
00000020: fcea d93e 0bd0 993f a289 9e3e b5c2 1540
00000030: dc6b 41be 38ed 853f 6084 06bf 22ca fb3e
00000040: e192 2d3f d622 553f 57bd 463f ab26 4fc0
00000050: a9a6 8cbd 413a 13bf 2c7a c1be 161b 91be
00000060: bc3b 7a3f ed70 4f3e 0bed 01bf 1af0 bbbf
00000070: 3c3b c43f a2b6 25bf e9d7 05be 3ae3 0840
00000080: 5fbf 1ebf d425 8dbe 68c0 6d3e a88f cdbf
00000090: e863 dcbf 0196 f6be 98dd e4be 9972 093e
000000a0: d65d 7abf af32 de3e a607 0ac0 f0f4 8fbd
000000b0: 0769 b83e d829 a83e e1ae 26be f30b 29bf
000000c0: ad79 44be 60f2 9d3f b376 19bf 7765 7a3f
000000d0: 3c91 913f b431 debf 043a 03be 484d 7abf
000000e0: 173c c0bf 88c2 4a3f 6257 f23e 27e4 863e
000000f0: 90f1 8abf f283 573e 42bd a7bf 823b 9e3d
00000100: 655b 29bf 5080 863f 24ee b9be bfca 6c3e
00000110: 07f8 6e3e d43c 9bbd 5ab8 d73d 1589 9b3e
00000120: 147a 65bf 114e ce3e 3426 5d3f 3471 cb3e
00000130: 3856 b5be 5a96 323e e83e babe eb2d f3bd
00000140: 2306 98bf 01a6 b03f 0ebe f73f cf34 34bf
00000150: 8042 493f 6d9b ba3f 0c27 75bf c323 0ac0
00000160: 7b26 c23f 9d28 29bc 58fd 04bf f6e6 413d
00000170: f2f7 bcbe c167 3d40 73dc 07bf 3297 a73e
00000180: 5068 a53f 6aca a43f 5449 8c3f 2cf2 d9be
00000190: bfbf 1bbe 6e2a 0bc0 1091 98bd 5460 063d
000001a0: 92e1 3d3f 88d2 e53f 6418 363f e70a 893f
000001b0: f114 8fbc dd63 a43f 5f64 363c 62ff 913f
000001c0: b0f3 4d3f 5913 c93e 9c36 c5bf cbf2 8b3f
000001d0: fe9a c13e f5db 333f 7d88 a03e dacb f83e
000001e0: d47b a63f 1ba6 f2be 526e ef3e fb05 47bf
000001f0: 4fa1 133f b5a8 803e 2b87 21bf e1d2 bf3d

B3 f4 [2]
-0.5687093 -0.37800092
00000000: ef96 11bf 5689 c1be
